WARNING: Logging before InitGoogleLogging() is written to STDERR
E0228 19:41:12.624303 34354 ir_helper_method_class.cc:386] REGISTER_AP_BUILTIN_MODULE ir_tools
W0228 19:41:13.482475 34354 gpu_resources.cc:119] Please NOTE: device: 0, GPU Compute Capability: 8.0, Driver API Version: 12.0, Runtime API Version: 11.8
W0228 19:41:13.483292 34354 gpu_resources.cc:164] device: 0, cuDNN Version: 8.6.
I0228 19:41:15.853461 34354 build_cinn_pass.cc:68] Time of building group ops (size=64): 0 min 0 s 2 ms
I0228 19:41:15.862809 34354 add_cinn_pass.cc:326] FusionOp count before lowering : *****[ 3 ]*****
I0228 19:41:15.862838 34354 add_cinn_pass.cc:263] Enable AP Generic DRR Pass
E0228 19:41:15.919009 34354 add_cinn_pass.cc:230] before ApLowerFusionOpAbstractDrrPass:
{
    (%0) = "pd_op.data" () {dtype:float32,name:"t0",place:Place(undefined:0),shape:[4,96,96,192],stop_gradient:[true]} : () -> tensor<4x96x96x192xf32>
    (%1) = "pd_op.data" () {dtype:int64,name:"t1",place:Place(undefined:0),shape:[3],stop_gradient:[true]} : () -> tensor<3xi64>
    (%2) = "pd_op.data" () {dtype:float32,name:"t2",place:Place(undefined:0),shape:[4,9216,192],stop_gradient:[true]} : () -> tensor<4x9216x192xf32>
    (%3) = "pd_op.data" () {dtype:float32,name:"t3",place:Place(undefined:0),shape:[192],stop_gradient:[true]} : () -> tensor<192xf32>
    (%4) = "pd_op.data" () {dtype:float32,name:"t4",place:Place(undefined:0),shape:[192],stop_gradient:[true]} : () -> tensor<192xf32>
    (%5) = "pd_op.data" () {dtype:float32,name:"t5",place:Place(undefined:0),shape:[192,768],stop_gradient:[true]} : () -> tensor<192x768xf32>
    (%6) = "pd_op.data" () {dtype:float32,name:"t6",place:Place(undefined:0),shape:[768],stop_gradient:[true]} : () -> tensor<768xf32>
    (%7) = "pd_op.data" () {dtype:float32,name:"t7",place:Place(undefined:0),shape:[768,192],stop_gradient:[true]} : () -> tensor<768x192xf32>
    (%8) = "pd_op.data" () {dtype:float32,name:"t8",place:Place(undefined:0),shape:[192],stop_gradient:[true]} : () -> tensor<192xf32>
    (%9) = "pd_op.data" () {dtype:float32,name:"t9",place:Place(undefined:0),shape:[192],stop_gradient:[true]} : () -> tensor<192xf32>
    (%10) = "pd_op.data" () {dtype:float32,name:"t10",place:Place(undefined:0),shape:[192],stop_gradient:[true]} : () -> tensor<192xf32>
    (%11, %12, %13) = "cinn_op.fusion" () -> tensor<4x9216x192xf32>, tensor<4x9216x192xf32>, tensor<4x9216x192xf32> {
        (%14) = "cinn_op.reshape" (%0) {shape:[4,9216,192],stop_gradient:[true]} : (tensor<4x96x96x192xf32>) -> tensor<4x9216x192xf32>
        (%15) = "cinn_op.yield_store" (%14) {} : (tensor<4x9216x192xf32>) -> tensor<4x9216x192xf32>
        (%16) = "pd_op.add" (%2, %14) {stop_gradient:[true]} : (tensor<4x9216x192xf32>, tensor<4x9216x192xf32>) -> tensor<4x9216x192xf32>
        (%17) = "cinn_op.yield_store" (%16) {} : (tensor<4x9216x192xf32>) -> tensor<4x9216x192xf32>
        (%18) = "cinn_op.reduce_sum" (%16) {axis:[2],dtype:float32,keepdim:true,stop_gradient:[true]} : (tensor<4x9216x192xf32>) -> tensor<4x9216x1xf32>
        (%19) = "pd_op.full" () {dtype:float32,place:Place(undefined:0),shape:[4,9216,1],stop_gradient:[true],value:192} : () -> tensor<4x9216x1xf32>
        (%20) = "pd_op.divide" (%18, %19) {stop_gradient:[true]} : (tensor<4x9216x1xf32>, tensor<4x9216x1xf32>) -> tensor<4x9216x1xf32>
        (%21) = "cinn_op.broadcast" (%20) {broadcast_axes:[0,1,2],out_shape:[4,9216,192],stop_gradient:[true]} : (tensor<4x9216x1xf32>) -> tensor<4x9216x192xf32>
        (%22) = "pd_op.subtract" (%16, %21) {stop_gradient:[true]} : (tensor<4x9216x192xf32>, tensor<4x9216x192xf32>) -> tensor<4x9216x192xf32>
        (%23) = "pd_op.multiply" (%22, %22) {stop_gradient:[true]} : (tensor<4x9216x192xf32>, tensor<4x9216x192xf32>) -> tensor<4x9216x192xf32>
        (%24) = "cinn_op.reduce_sum" (%23) {axis:[2],dtype:float32,keepdim:true,stop_gradient:[true]} : (tensor<4x9216x192xf32>) -> tensor<4x9216x1xf32>
        (%25) = "pd_op.full" () {dtype:float32,place:Place(undefined:0),shape:[4,9216,1],stop_gradient:[true],value:192} : () -> tensor<4x9216x1xf32>
        (%26) = "pd_op.divide" (%24, %25) {stop_gradient:[true]} : (tensor<4x9216x1xf32>, tensor<4x9216x1xf32>) -> tensor<4x9216x1xf32>
        (%27) = "pd_op.full" () {dtype:float32,place:Place(undefined:0),shape:[4,9216,1],stop_gradient:[true],value:1e-05} : () -> tensor<4x9216x1xf32>
        (%28) = "pd_op.add" (%26, %27) {stop_gradient:[true]} : (tensor<4x9216x1xf32>, tensor<4x9216x1xf32>) -> tensor<4x9216x1xf32>
        (%29) = "pd_op.rsqrt" (%28) {stop_gradient:[true]} : (tensor<4x9216x1xf32>) -> tensor<4x9216x1xf32>
        (%30) = "cinn_op.broadcast" (%29) {broadcast_axes:[0,1,2],out_shape:[4,9216,192],stop_gradient:[true]} : (tensor<4x9216x1xf32>) -> tensor<4x9216x192xf32>
        (%31) = "pd_op.multiply" (%22, %30) {stop_gradient:[true]} : (tensor<4x9216x192xf32>, tensor<4x9216x192xf32>) -> tensor<4x9216x192xf32>
        (%32) = "cinn_op.broadcast" (%3) {broadcast_axes:[2],out_shape:[4,9216,192],stop_gradient:[true]} : (tensor<192xf32>) -> tensor<4x9216x192xf32>
        (%33) = "pd_op.multiply" (%31, %32) {stop_gradient:[true]} : (tensor<4x9216x192xf32>, tensor<4x9216x192xf32>) -> tensor<4x9216x192xf32>
        (%34) = "cinn_op.broadcast" (%4) {broadcast_axes:[2],out_shape:[4,9216,192],stop_gradient:[true]} : (tensor<192xf32>) -> tensor<4x9216x192xf32>
        (%35) = "pd_op.add" (%33, %34) {stop_gradient:[true]} : (tensor<4x9216x192xf32>, tensor<4x9216x192xf32>) -> tensor<4x9216x192xf32>
        (%36) = "cinn_op.yield_store" (%35) {} : (tensor<4x9216x192xf32>) -> tensor<4x9216x192xf32>
        () = "cf.yield" (%15, %17, %36) {} : (tensor<4x9216x192xf32>, tensor<4x9216x192xf32>, tensor<4x9216x192xf32>) -> 
    }
    (%37) = "pd_op.matmul" (%13, %5) {stop_gradient:[true],transpose_x:false,transpose_y:false} : (tensor<4x9216x192xf32>, tensor<192x768xf32>) -> tensor<4x9216x768xf32>
    (%38, %39) = "cinn_op.fusion" () -> tensor<4x9216x768xf32>, tensor<4x9216x768xf32> {
        (%40) = "cinn_op.broadcast" (%6) {broadcast_axes:[2],out_shape:[4,9216,768],stop_gradient:[true]} : (tensor<768xf32>) -> tensor<4x9216x768xf32>
        (%41) = "pd_op.add" (%37, %40) {stop_gradient:[true]} : (tensor<4x9216x768xf32>, tensor<4x9216x768xf32>) -> tensor<4x9216x768xf32>
        (%42) = "cinn_op.yield_store" (%41) {} : (tensor<4x9216x768xf32>) -> tensor<4x9216x768xf32>
        (%43) = "pd_op.full" () {dtype:float32,place:Place(undefined:0),shape:[4,9216,768],stop_gradient:[true],value:0.707107} : () -> tensor<4x9216x768xf32>
        (%44) = "pd_op.multiply" (%41, %43) {stop_gradient:[true]} : (tensor<4x9216x768xf32>, tensor<4x9216x768xf32>) -> tensor<4x9216x768xf32>
        (%45) = "pd_op.erf" (%44) {stop_gradient:[true]} : (tensor<4x9216x768xf32>) -> tensor<4x9216x768xf32>
        (%46) = "pd_op.full" () {dtype:float32,place:Place(undefined:0),shape:[4,9216,768],stop_gradient:[true],value:1} : () -> tensor<4x9216x768xf32>
        (%47) = "pd_op.add" (%46, %45) {stop_gradient:[true]} : (tensor<4x9216x768xf32>, tensor<4x9216x768xf32>) -> tensor<4x9216x768xf32>
        (%48) = "pd_op.full" () {dtype:float32,place:Place(undefined:0),shape:[4,9216,768],stop_gradient:[true],value:0.5} : () -> tensor<4x9216x768xf32>
        (%49) = "pd_op.multiply" (%41, %48) {stop_gradient:[true]} : (tensor<4x9216x768xf32>, tensor<4x9216x768xf32>) -> tensor<4x9216x768xf32>
        (%50) = "pd_op.multiply" (%49, %47) {stop_gradient:[true]} : (tensor<4x9216x768xf32>, tensor<4x9216x768xf32>) -> tensor<4x9216x768xf32>
        (%51) = "cinn_op.yield_store" (%50) {} : (tensor<4x9216x768xf32>) -> tensor<4x9216x768xf32>
        () = "cf.yield" (%42, %51) {} : (tensor<4x9216x768xf32>, tensor<4x9216x768xf32>) -> 
    }
    (%52) = "pd_op.matmul" (%39, %7) {stop_gradient:[true],transpose_x:false,transpose_y:false} : (tensor<4x9216x768xf32>, tensor<768x192xf32>) -> tensor<4x9216x192xf32>
    (%53, %54, %55) = "cinn_op.fusion" () -> tensor<4x9216x192xf32>, tensor<4x9216x192xf32>, tensor<4x9216x192xf32> {
        (%56) = "cinn_op.broadcast" (%8) {broadcast_axes:[2],out_shape:[4,9216,192],stop_gradient:[true]} : (tensor<192xf32>) -> tensor<4x9216x192xf32>
        (%57) = "pd_op.add" (%52, %56) {stop_gradient:[true]} : (tensor<4x9216x192xf32>, tensor<4x9216x192xf32>) -> tensor<4x9216x192xf32>
        (%58) = "cinn_op.yield_store" (%57) {} : (tensor<4x9216x192xf32>) -> tensor<4x9216x192xf32>
        (%59) = "pd_op.add" (%12, %57) {stop_gradient:[true]} : (tensor<4x9216x192xf32>, tensor<4x9216x192xf32>) -> tensor<4x9216x192xf32>
        (%60) = "cinn_op.yield_store" (%59) {} : (tensor<4x9216x192xf32>) -> tensor<4x9216x192xf32>
        (%61) = "cinn_op.reduce_sum" (%59) {axis:[2],dtype:float32,keepdim:true,stop_gradient:[true]} : (tensor<4x9216x192xf32>) -> tensor<4x9216x1xf32>
        (%62) = "pd_op.full" () {dtype:float32,place:Place(undefined:0),shape:[4,9216,1],stop_gradient:[true],value:192} : () -> tensor<4x9216x1xf32>
        (%63) = "pd_op.divide" (%61, %62) {stop_gradient:[true]} : (tensor<4x9216x1xf32>, tensor<4x9216x1xf32>) -> tensor<4x9216x1xf32>
        (%64) = "cinn_op.broadcast" (%63) {broadcast_axes:[0,1,2],out_shape:[4,9216,192],stop_gradient:[true]} : (tensor<4x9216x1xf32>) -> tensor<4x9216x192xf32>
        (%65) = "pd_op.subtract" (%59, %64) {stop_gradient:[true]} : (tensor<4x9216x192xf32>, tensor<4x9216x192xf32>) -> tensor<4x9216x192xf32>
        (%66) = "pd_op.multiply" (%65, %65) {stop_gradient:[true]} : (tensor<4x9216x192xf32>, tensor<4x9216x192xf32>) -> tensor<4x9216x192xf32>
        (%67) = "cinn_op.reduce_sum" (%66) {axis:[2],dtype:float32,keepdim:true,stop_gradient:[true]} : (tensor<4x9216x192xf32>) -> tensor<4x9216x1xf32>
        (%68) = "pd_op.full" () {dtype:float32,place:Place(undefined:0),shape:[4,9216,1],stop_gradient:[true],value:192} : () -> tensor<4x9216x1xf32>
        (%69) = "pd_op.divide" (%67, %68) {stop_gradient:[true]} : (tensor<4x9216x1xf32>, tensor<4x9216x1xf32>) -> tensor<4x9216x1xf32>
        (%70) = "pd_op.full" () {dtype:float32,place:Place(undefined:0),shape:[4,9216,1],stop_gradient:[true],value:1e-05} : () -> tensor<4x9216x1xf32>
        (%71) = "pd_op.add" (%69, %70) {stop_gradient:[true]} : (tensor<4x9216x1xf32>, tensor<4x9216x1xf32>) -> tensor<4x9216x1xf32>
        (%72) = "pd_op.rsqrt" (%71) {stop_gradient:[true]} : (tensor<4x9216x1xf32>) -> tensor<4x9216x1xf32>
        (%73) = "cinn_op.broadcast" (%72) {broadcast_axes:[0,1,2],out_shape:[4,9216,192],stop_gradient:[true]} : (tensor<4x9216x1xf32>) -> tensor<4x9216x192xf32>
        (%74) = "pd_op.multiply" (%65, %73) {stop_gradient:[true]} : (tensor<4x9216x192xf32>, tensor<4x9216x192xf32>) -> tensor<4x9216x192xf32>
        (%75) = "cinn_op.broadcast" (%9) {broadcast_axes:[2],out_shape:[4,9216,192],stop_gradient:[true]} : (tensor<192xf32>) -> tensor<4x9216x192xf32>
        (%76) = "pd_op.multiply" (%74, %75) {stop_gradient:[true]} : (tensor<4x9216x192xf32>, tensor<4x9216x192xf32>) -> tensor<4x9216x192xf32>
        (%77) = "cinn_op.broadcast" (%10) {broadcast_axes:[2],out_shape:[4,9216,192],stop_gradient:[true]} : (tensor<192xf32>) -> tensor<4x9216x192xf32>
        (%78) = "pd_op.add" (%76, %77) {stop_gradient:[true]} : (tensor<4x9216x192xf32>, tensor<4x9216x192xf32>) -> tensor<4x9216x192xf32>
        (%79) = "cinn_op.yield_store" (%78) {} : (tensor<4x9216x192xf32>) -> tensor<4x9216x192xf32>
        () = "cf.yield" (%58, %60, %79) {} : (tensor<4x9216x192xf32>, tensor<4x9216x192xf32>, tensor<4x9216x192xf32>) -> 
    }
    () = "builtin.shadow_output" (%11) {output_name:"output_0"} : (tensor<4x9216x192xf32>) -> 
    () = "builtin.shadow_output" (%12) {output_name:"output_1"} : (tensor<4x9216x192xf32>) -> 
    () = "builtin.shadow_output" (%13) {output_name:"output_2"} : (tensor<4x9216x192xf32>) -> 
    () = "builtin.shadow_output" (%37) {output_name:"output_3"} : (tensor<4x9216x768xf32>) -> 
    () = "builtin.shadow_output" (%38) {output_name:"output_4"} : (tensor<4x9216x768xf32>) -> 
    () = "builtin.shadow_output" (%39) {output_name:"output_5"} : (tensor<4x9216x768xf32>) -> 
    () = "builtin.shadow_output" (%52) {output_name:"output_6"} : (tensor<4x9216x192xf32>) -> 
    () = "builtin.shadow_output" (%53) {output_name:"output_7"} : (tensor<4x9216x192xf32>) -> 
    () = "builtin.shadow_output" (%54) {output_name:"output_8"} : (tensor<4x9216x192xf32>) -> 
    () = "builtin.shadow_output" (%55) {output_name:"output_9"} : (tensor<4x9216x192xf32>) -> 
}
E0228 19:41:15.919984 34354 builtin_functions.cc:121] Print
....begin copy program
E0228 19:41:15.921011 34354 builtin_functions.cc:121] Print
....exit copy program
E0228 19:41:15.921105 34354 builtin_functions.cc:121] Print
before-access_topo_pass {
    (%0) = "pd_op.data" () {dtype:float32,name:"input2",place:Place(undefined:0),shape:[768],stop_gradient:[true]} : () -> tensor<768xf32>
    (%1) = "pd_op.data" () {dtype:float32,name:"mm_out",place:Place(undefined:0),shape:[4,9216,768],stop_gradient:[true]} : () -> tensor<4x9216x768xf32>
    (%2) = "cinn_op.broadcast" (%0) {broadcast_axes:[2],out_shape:[4,9216,768],stop_gradient:[true]} : (tensor<768xf32>) -> tensor<4x9216x768xf32>
    (%3) = "pd_op.add" (%1, %2) {stop_gradient:[true]} : (tensor<4x9216x768xf32>, tensor<4x9216x768xf32>) -> tensor<4x9216x768xf32>
    (%4) = "cinn_op.yield_store" (%3) {} : (tensor<4x9216x768xf32>) -> tensor<4x9216x768xf32>
    (%5) = "pd_op.full" () {dtype:float32,place:Place(undefined:0),shape:[4,9216,768],stop_gradient:[true],value:0.707107} : () -> tensor<4x9216x768xf32>
    (%6) = "pd_op.multiply" (%3, %5) {stop_gradient:[true]} : (tensor<4x9216x768xf32>, tensor<4x9216x768xf32>) -> tensor<4x9216x768xf32>
    (%7) = "pd_op.erf" (%6) {stop_gradient:[true]} : (tensor<4x9216x768xf32>) -> tensor<4x9216x768xf32>
    (%8) = "pd_op.full" () {dtype:float32,place:Place(undefined:0),shape:[4,9216,768],stop_gradient:[true],value:1} : () -> tensor<4x9216x768xf32>
    (%9) = "pd_op.add" (%8, %7) {stop_gradient:[true]} : (tensor<4x9216x768xf32>, tensor<4x9216x768xf32>) -> tensor<4x9216x768xf32>
    (%10) = "pd_op.full" () {dtype:float32,place:Place(undefined:0),shape:[4,9216,768],stop_gradient:[true],value:0.5} : () -> tensor<4x9216x768xf32>
    (%11) = "pd_op.multiply" (%3, %10) {stop_gradient:[true]} : (tensor<4x9216x768xf32>, tensor<4x9216x768xf32>) -> tensor<4x9216x768xf32>
    (%12) = "pd_op.multiply" (%11, %9) {stop_gradient:[true]} : (tensor<4x9216x768xf32>, tensor<4x9216x768xf32>) -> tensor<4x9216x768xf32>
    (%13) = "cinn_op.yield_store" (%12) {} : (tensor<4x9216x768xf32>) -> tensor<4x9216x768xf32>
    () = "cf.yield" (%4, %13) {} : (tensor<4x9216x768xf32>, tensor<4x9216x768xf32>) -> 
}
I0228 19:41:15.922391 34354 ap_lower_fusion_op_pass.cc:2434] drr: tmp_access_drr_pass_1 matched.
I0228 19:41:15.922407 34354 ap_lower_fusion_op_pass.cc:308] drr: tmp_access_drr_pass_1 matched.
I0228 19:41:15.923168 34354 ap_lower_fusion_op_pass.cc:2434] drr: tmp_access_drr_pass_1 matched.
I0228 19:41:15.923180 34354 ap_lower_fusion_op_pass.cc:308] drr: tmp_access_drr_pass_1 matched.
E0228 19:41:15.923501 34354 builtin_functions.cc:121] Print
after-init-access_topo_pass {
    (%0) = "pd_op.data" () {dtype:float32,name:"input2",place:Place(undefined:0),shape:[768],stop_gradient:[true]} : () -> tensor<768xf32>
    (%1) = "pd_op.data" () {dtype:float32,name:"mm_out",place:Place(undefined:0),shape:[4,9216,768],stop_gradient:[true]} : () -> tensor<4x9216x768xf32>
    (%2) = "ap_op.down_spider" (%1) {} : (tensor<4x9216x768xf32>) -> tensor<4x9216x768xf32>
    (%3) = "cinn_op.broadcast" (%0) {broadcast_axes:[2],out_shape:[4,9216,768],stop_gradient:[true]} : (tensor<768xf32>) -> tensor<4x9216x768xf32>
    (%4) = "pd_op.add" (%2, %3) {stop_gradient:[true]} : (tensor<4x9216x768xf32>, tensor<4x9216x768xf32>) -> tensor<4x9216x768xf32>
    (%5) = "cinn_op.yield_store" (%4) {} : (tensor<4x9216x768xf32>) -> tensor<4x9216x768xf32>
    (%6) = "pd_op.full" () {dtype:float32,place:Place(undefined:0),shape:[4,9216,768],stop_gradient:[true],value:0.707107} : () -> tensor<4x9216x768xf32>
    (%7) = "pd_op.multiply" (%4, %6) {stop_gradient:[true]} : (tensor<4x9216x768xf32>, tensor<4x9216x768xf32>) -> tensor<4x9216x768xf32>
    (%8) = "pd_op.erf" (%7) {stop_gradient:[true]} : (tensor<4x9216x768xf32>) -> tensor<4x9216x768xf32>
    (%9) = "pd_op.full" () {dtype:float32,place:Place(undefined:0),shape:[4,9216,768],stop_gradient:[true],value:1} : () -> tensor<4x9216x768xf32>
    (%10) = "pd_op.add" (%9, %8) {stop_gradient:[true]} : (tensor<4x9216x768xf32>, tensor<4x9216x768xf32>) -> tensor<4x9216x768xf32>
    (%11) = "pd_op.full" () {dtype:float32,place:Place(undefined:0),shape:[4,9216,768],stop_gradient:[true],value:0.5} : () -> tensor<4x9216x768xf32>
    (%12) = "pd_op.multiply" (%4, %11) {stop_gradient:[true]} : (tensor<4x9216x768xf32>, tensor<4x9216x768xf32>) -> tensor<4x9216x768xf32>
    (%13) = "pd_op.multiply" (%12, %10) {stop_gradient:[true]} : (tensor<4x9216x768xf32>, tensor<4x9216x768xf32>) -> tensor<4x9216x768xf32>
    (%14) = "cinn_op.yield_store" (%13) {} : (tensor<4x9216x768xf32>) -> tensor<4x9216x768xf32>
    (%15) = "pd_op.data" () {dtype:float32,name:"output",place:Place(undefined:0),shape:[4,9216,768],stop_gradient:[true]} : () -> tensor<4x9216x768xf32>
    () = "ap_op.up_spider" (%5, %15) {} : (tensor<4x9216x768xf32>, tensor<4x9216x768xf32>) -> 
}
I0228 19:41:15.930466 34354 ap_lower_fusion_op_pass.cc:2434] drr: down_spider_add matched.
I0228 19:41:15.930480 34354 ap_lower_fusion_op_pass.cc:308] drr: down_spider_add matched.
I0228 19:41:15.930581 34354 ap_lower_fusion_op_pass.cc:2434] drr: cinn_op_yield_store matched.
I0228 19:41:15.930588 34354 ap_lower_fusion_op_pass.cc:308] drr: cinn_op_yield_store matched.
I0228 19:41:15.930694 34354 ap_lower_fusion_op_pass.cc:2413] drr: pd_op_left_full_add mismatched.
I0228 19:41:15.930716 34354 ap_lower_fusion_op_pass.cc:2413] drr: pd_op_right_full_add mismatched.
I0228 19:41:15.930797 34354 ap_lower_fusion_op_pass.cc:2434] drr: pd_op_multiply matched.
I0228 19:41:15.930804 34354 ap_lower_fusion_op_pass.cc:308] drr: pd_op_multiply matched.
I0228 19:41:15.930896 34354 ap_lower_fusion_op_pass.cc:2434] drr: pd_op_erf matched.
I0228 19:41:15.930902 34354 ap_lower_fusion_op_pass.cc:308] drr: pd_op_erf matched.
I0228 19:41:15.931005 34354 ap_lower_fusion_op_pass.cc:2434] drr: pd_op_left_full_add matched.
I0228 19:41:15.931011 34354 ap_lower_fusion_op_pass.cc:308] drr: pd_op_left_full_add matched.
I0228 19:41:15.931059 34354 ap_lower_fusion_op_pass.cc:2413] drr: pd_op_left_full_add mismatched.
I0228 19:41:15.931077 34354 ap_lower_fusion_op_pass.cc:2413] drr: pd_op_right_full_add mismatched.
I0228 19:41:15.931141 34354 ap_lower_fusion_op_pass.cc:2434] drr: pd_op_multiply matched.
I0228 19:41:15.931146 34354 ap_lower_fusion_op_pass.cc:308] drr: pd_op_multiply matched.
I0228 19:41:15.931238 34354 ap_lower_fusion_op_pass.cc:2434] drr: pd_op_multiply matched.
I0228 19:41:15.931245 34354 ap_lower_fusion_op_pass.cc:308] drr: pd_op_multiply matched.
I0228 19:41:15.931335 34354 ap_lower_fusion_op_pass.cc:2434] drr: cinn_op_yield_store matched.
I0228 19:41:15.931342 34354 ap_lower_fusion_op_pass.cc:308] drr: cinn_op_yield_store matched.
I0228 19:41:15.931392 34354 ap_lower_fusion_op_pass.cc:2413] drr: cinn_broadcast_up_spider mismatched.
I0228 19:41:15.931416 34354 ap_lower_fusion_op_pass.cc:2413] drr: expand_up_spider mismatched.
I0228 19:41:15.931437 34354 ap_lower_fusion_op_pass.cc:2413] drr: left_down_spider_up_spider mismatched.
I0228 19:41:15.931456 34354 ap_lower_fusion_op_pass.cc:2413] drr: right_down_spider_up_spider mismatched.
I0228 19:41:15.931475 34354 ap_lower_fusion_op_pass.cc:2413] drr: triangle_left_down_spider_up_spider mismatched.
I0228 19:41:15.931555 34354 ap_lower_fusion_op_pass.cc:2434] drr: down_spider_relu matched.
I0228 19:41:15.931560 34354 ap_lower_fusion_op_pass.cc:308] drr: down_spider_relu matched.
I0228 19:41:15.931731 34354 ap_lower_fusion_op_pass.cc:2434] drr: cinn_broadcast_up_spider matched.
I0228 19:41:15.931739 34354 ap_lower_fusion_op_pass.cc:308] drr: cinn_broadcast_up_spider matched.
I0228 19:41:15.931896 34354 ap_lower_fusion_op_pass.cc:2413] drr: pd_op_left_full_add mismatched.
I0228 19:41:15.931982 34354 ap_lower_fusion_op_pass.cc:2434] drr: pd_op_right_full_add matched.
I0228 19:41:15.931988 34354 ap_lower_fusion_op_pass.cc:308] drr: pd_op_right_full_add matched.
I0228 19:41:15.932045 34354 ap_lower_fusion_op_pass.cc:2413] drr: down_spider_relu mismatched.
I0228 19:41:15.932068 34354 ap_lower_fusion_op_pass.cc:2413] drr: down_spider_relu mismatched.
I0228 19:41:15.932085 34354 ap_lower_fusion_op_pass.cc:2413] drr: pd_op_left_full_add mismatched.
I0228 19:41:15.932158 34354 ap_lower_fusion_op_pass.cc:2434] drr: pd_op_right_full_add matched.
I0228 19:41:15.932163 34354 ap_lower_fusion_op_pass.cc:308] drr: pd_op_right_full_add matched.
I0228 19:41:15.932221 34354 ap_lower_fusion_op_pass.cc:2413] drr: down_spider_add mismatched.
I0228 19:41:15.932243 34354 ap_lower_fusion_op_pass.cc:2413] drr: down_spider_relu mismatched.
I0228 19:41:15.932264 34354 ap_lower_fusion_op_pass.cc:2413] drr: cinn_broadcast_up_spider mismatched.
I0228 19:41:15.932294 34354 ap_lower_fusion_op_pass.cc:2413] drr: expand_up_spider mismatched.
I0228 19:41:15.932372 34354 ap_lower_fusion_op_pass.cc:2434] drr: left_down_spider_up_spider matched.
I0228 19:41:15.932377 34354 ap_lower_fusion_op_pass.cc:308] drr: left_down_spider_up_spider matched.
I0228 19:41:15.932427 34354 ap_lower_fusion_op_pass.cc:2413] drr: cinn_broadcast_up_spider mismatched.
I0228 19:41:15.932449 34354 ap_lower_fusion_op_pass.cc:2413] drr: expand_up_spider mismatched.
I0228 19:41:15.932469 34354 ap_lower_fusion_op_pass.cc:2413] drr: left_down_spider_up_spider mismatched.
I0228 19:41:15.932489 34354 ap_lower_fusion_op_pass.cc:2413] drr: right_down_spider_up_spider mismatched.
I0228 19:41:15.932508 34354 ap_lower_fusion_op_pass.cc:2413] drr: triangle_left_down_spider_up_spider mismatched.
I0228 19:41:15.932583 34354 ap_lower_fusion_op_pass.cc:2434] drr: down_spider_relu matched.
I0228 19:41:15.932590 34354 ap_lower_fusion_op_pass.cc:308] drr: down_spider_relu matched.
I0228 19:41:15.932687 34354 ap_lower_fusion_op_pass.cc:2434] drr: down_spider_relu matched.
I0228 19:41:15.932693 34354 ap_lower_fusion_op_pass.cc:308] drr: down_spider_relu matched.
I0228 19:41:15.932791 34354 ap_lower_fusion_op_pass.cc:2434] drr: down_spider_relu matched.
I0228 19:41:15.932797 34354 ap_lower_fusion_op_pass.cc:308] drr: down_spider_relu matched.
I0228 19:41:15.932894 34354 ap_lower_fusion_op_pass.cc:2434] drr: down_spider_relu matched.
I0228 19:41:15.932900 34354 ap_lower_fusion_op_pass.cc:308] drr: down_spider_relu matched.
I0228 19:41:15.933008 34354 ap_lower_fusion_op_pass.cc:2434] drr: down_spider_add matched.
I0228 19:41:15.933015 34354 ap_lower_fusion_op_pass.cc:308] drr: down_spider_add matched.
I0228 19:41:15.933123 34354 ap_lower_fusion_op_pass.cc:2434] drr: down_spider_relu matched.
I0228 19:41:15.933130 34354 ap_lower_fusion_op_pass.cc:308] drr: down_spider_relu matched.
I0228 19:41:15.933175 34354 ap_lower_fusion_op_pass.cc:2413] drr: cinn_broadcast_up_spider mismatched.
I0228 19:41:15.933198 34354 ap_lower_fusion_op_pass.cc:2413] drr: expand_up_spider mismatched.
I0228 19:41:15.933219 34354 ap_lower_fusion_op_pass.cc:2413] drr: left_down_spider_up_spider mismatched.
I0228 19:41:15.933238 34354 ap_lower_fusion_op_pass.cc:2413] drr: right_down_spider_up_spider mismatched.
I0228 19:41:15.933274 34354 ap_lower_fusion_op_pass.cc:2413] drr: triangle_left_down_spider_up_spider mismatched.
I0228 19:41:15.933305 34354 ap_lower_fusion_op_pass.cc:2413] drr: cinn_broadcast_up_spider mismatched.
I0228 19:41:15.933326 34354 ap_lower_fusion_op_pass.cc:2413] drr: expand_up_spider mismatched.
I0228 19:41:15.933344 34354 ap_lower_fusion_op_pass.cc:2413] drr: left_down_spider_up_spider mismatched.
I0228 19:41:15.933369 34354 ap_lower_fusion_op_pass.cc:2413] drr: right_down_spider_up_spider mismatched.
I0228 19:41:15.933470 34354 ap_lower_fusion_op_pass.cc:2434] drr: triangle_left_down_spider_up_spider matched.
I0228 19:41:15.933475 34354 ap_lower_fusion_op_pass.cc:308] drr: triangle_left_down_spider_up_spider matched.
I0228 19:41:15.933509 34354 ap_lower_fusion_op_pass.cc:2413] drr: cinn_broadcast_up_spider mismatched.
I0228 19:41:15.933531 34354 ap_lower_fusion_op_pass.cc:2413] drr: expand_up_spider mismatched.
I0228 19:41:15.933552 34354 ap_lower_fusion_op_pass.cc:2413] drr: left_down_spider_up_spider mismatched.
I0228 19:41:15.933570 34354 ap_lower_fusion_op_pass.cc:2413] drr: right_down_spider_up_spider mismatched.
I0228 19:41:15.933589 34354 ap_lower_fusion_op_pass.cc:2413] drr: triangle_left_down_spider_up_spider mismatched.
I0228 19:41:15.933606 34354 ap_lower_fusion_op_pass.cc:2413] drr: cinn_broadcast_up_spider mismatched.
I0228 19:41:15.933626 34354 ap_lower_fusion_op_pass.cc:2413] drr: expand_up_spider mismatched.
I0228 19:41:15.933645 34354 ap_lower_fusion_op_pass.cc:2413] drr: left_down_spider_up_spider mismatched.
I0228 19:41:15.933663 34354 ap_lower_fusion_op_pass.cc:2413] drr: right_down_spider_up_spider mismatched.
I0228 19:41:15.933688 34354 ap_lower_fusion_op_pass.cc:2413] drr: triangle_left_down_spider_up_spider mismatched.
I0228 19:41:15.933709 34354 ap_lower_fusion_op_pass.cc:2413] drr: cinn_broadcast_up_spider mismatched.
I0228 19:41:15.933729 34354 ap_lower_fusion_op_pass.cc:2413] drr: expand_up_spider mismatched.
I0228 19:41:15.933748 34354 ap_lower_fusion_op_pass.cc:2413] drr: left_down_spider_up_spider mismatched.
I0228 19:41:15.933768 34354 ap_lower_fusion_op_pass.cc:2413] drr: right_down_spider_up_spider mismatched.
I0228 19:41:15.933785 34354 ap_lower_fusion_op_pass.cc:2413] drr: triangle_left_down_spider_up_spider mismatched.
I0228 19:41:15.933805 34354 ap_lower_fusion_op_pass.cc:2413] drr: cinn_broadcast_up_spider mismatched.
I0228 19:41:15.933825 34354 ap_lower_fusion_op_pass.cc:2413] drr: expand_up_spider mismatched.
I0228 19:41:15.933844 34354 ap_lower_fusion_op_pass.cc:2413] drr: left_down_spider_up_spider mismatched.
I0228 19:41:15.933863 34354 ap_lower_fusion_op_pass.cc:2413] drr: right_down_spider_up_spider mismatched.
I0228 19:41:15.933887 34354 ap_lower_fusion_op_pass.cc:2413] drr: triangle_left_down_spider_up_spider mismatched.
E0228 19:41:15.933962 34354 builtin_functions.cc:121] Print
after-apply-access_topo_pass {
    (%0) = "pd_op.data" () {dtype:float32,name:"input2",place:Place(undefined:0),shape:[768],stop_gradient:[true]} : () -> tensor<768xf32>
    (%1) = "pd_op.data" () {dtype:float32,name:"mm_out",place:Place(undefined:0),shape:[4,9216,768],stop_gradient:[true]} : () -> tensor<4x9216x768xf32>
    (%2) = "pd_op.full_int_array" () {dtype:int64,place:Place(cpu),stop_gradient:[true],value:[0,1]} : () -> tensor<2xi64>
    (%3) = "pd_op.sum" (%1, %2) {dtype:Undefined,keepdim:false,stop_gradient:[true]} : (tensor<4x9216x768xf32>, tensor<2xi64>) -> tensor<768xf32>
    () = "ap_op.up_spider" (%3, %0) {} : (tensor<768xf32>, tensor<768xf32>) -> 
    (%4) = "pd_op.data" () {dtype:float32,name:"output",place:Place(undefined:0),shape:[4,9216,768],stop_gradient:[true]} : () -> tensor<4x9216x768xf32>
    () = "ap_op.up_spider" (%1, %4) {} : (tensor<4x9216x768xf32>, tensor<4x9216x768xf32>) -> 
}
E0228 19:41:15.934060 34354 builtin_functions.cc:121] Print
after-remove-data-op-pair-pass {
    (%0) = "pd_op.data" () {dtype:float32,name:"input2",place:Place(undefined:0),shape:[768],stop_gradient:[true]} : () -> tensor<768xf32>
    (%1) = "pd_op.data" () {dtype:float32,name:"mm_out",place:Place(undefined:0),shape:[4,9216,768],stop_gradient:[true]} : () -> tensor<4x9216x768xf32>
    (%2) = "pd_op.full_int_array" () {dtype:int64,place:Place(cpu),stop_gradient:[true],value:[0,1]} : () -> tensor<2xi64>
    (%3) = "pd_op.sum" (%1, %2) {dtype:Undefined,keepdim:false,stop_gradient:[true]} : (tensor<4x9216x768xf32>, tensor<2xi64>) -> tensor<768xf32>
    () = "ap_op.up_spider" (%3, %0) {} : (tensor<768xf32>, tensor<768xf32>) -> 
    (%4) = "pd_op.data" () {dtype:float32,name:"output",place:Place(undefined:0),shape:[4,9216,768],stop_gradient:[true]} : () -> tensor<4x9216x768xf32>
    () = "ap_op.up_spider" (%1, %4) {} : (tensor<4x9216x768xf32>, tensor<4x9216x768xf32>) -> 
}
I0228 19:41:15.935000 34354 ap_lower_fusion_op_pass.cc:2413] drr: tmp_access_drr_pass_1 mismatched.
I0228 19:41:15.935026 34354 ap_lower_fusion_op_pass.cc:2413] drr: tmp_access_drr_pass_1 mismatched.
I0228 19:41:15.935259 34354 ap_lower_fusion_op_pass.cc:2434] drr: tmp_access_drr_pass_1 matched.
I0228 19:41:15.935266 34354 ap_lower_fusion_op_pass.cc:308] drr: tmp_access_drr_pass_1 matched.
E0228 19:41:15.935345 34354 builtin_functions.cc:121] Print
after-remove_data_op2sum_op2data_op_pass {
    (%0) = "pd_op.data" () {dtype:float32,name:"mm_out",place:Place(undefined:0),shape:[4,9216,768],stop_gradient:[true]} : () -> tensor<4x9216x768xf32>
    (%1) = "pd_op.data" () {dtype:float32,name:"output",place:Place(undefined:0),shape:[4,9216,768],stop_gradient:[true]} : () -> tensor<4x9216x768xf32>
    () = "ap_op.up_spider" (%0, %1) {} : (tensor<4x9216x768xf32>, tensor<4x9216x768xf32>) -> 
}
I0228 19:41:15.936221 34354 ap_lower_fusion_op_pass.cc:2413] drr: tmp_access_drr_pass_2 mismatched.
I0228 19:41:15.936355 34354 ap_lower_fusion_op_pass.cc:2413] drr: tmp_access_drr_pass_2 mismatched.
I0228 19:41:15.936367 34354 ap_lower_fusion_op_pass.cc:2413] drr: tmp_access_drr_pass_2 mismatched.
I0228 19:41:15.936388 34354 ap_lower_fusion_op_pass.cc:2413] drr: tmp_access_drr_pass_1 mismatched.
I0228 19:41:15.936483 34354 ap_lower_fusion_op_pass.cc:2434] drr: tmp_access_drr_pass_1 matched.
I0228 19:41:15.936489 34354 ap_lower_fusion_op_pass.cc:308] drr: tmp_access_drr_pass_1 matched.
E0228 19:41:15.936527 34354 builtin_functions.cc:121] Print
after-remove-input-output-access_topo_pass {
}
I0228 19:41:15.936741 34354 ap_lower_fusion_op_pass.cc:2299] drr: matmul_binary_fusion matched.
I0228 19:41:15.936748 34354 ap_lower_fusion_op_pass.cc:308] drr: matmul_binary_fusion matched.
I0228 19:41:15.938889 34354 ap_lower_fusion_op_pass.cc:2434] drr: tmp_access_drr_pass_1 matched.
I0228 19:41:15.938901 34354 ap_lower_fusion_op_pass.cc:308] drr: tmp_access_drr_pass_1 matched.
I0228 19:41:15.939069 34354 ap_lower_fusion_op_pass.cc:2434] drr: tmp_access_drr_pass_1 matched.
I0228 19:41:15.939076 34354 ap_lower_fusion_op_pass.cc:308] drr: tmp_access_drr_pass_1 matched.
I0228 19:41:15.939826 34354 ap_lower_fusion_op_pass.cc:2434] drr: tmp_access_drr_pass_1 matched.
I0228 19:41:15.939839 34354 ap_lower_fusion_op_pass.cc:308] drr: tmp_access_drr_pass_1 matched.
I0228 19:41:15.940789 34354 ap_lower_fusion_op_pass.cc:2434] drr: tmp_access_drr_pass_1 matched.
I0228 19:41:15.940804 34354 ap_lower_fusion_op_pass.cc:308] drr: tmp_access_drr_pass_1 matched.
I0228 19:41:15.947886 34354 ap_lower_fusion_op_pass.cc:2413] drr: down_spider_load_from_global mismatched.
I0228 19:41:15.947978 34354 ap_lower_fusion_op_pass.cc:2434] drr: down_spider_load_from_global matched.
I0228 19:41:15.947984 34354 ap_lower_fusion_op_pass.cc:308] drr: down_spider_load_from_global matched.
I0228 19:41:15.948103 34354 ap_lower_fusion_op_pass.cc:2434] drr: down_spider_add matched.
I0228 19:41:15.948109 34354 ap_lower_fusion_op_pass.cc:308] drr: down_spider_add matched.
I0228 19:41:15.948199 34354 ap_lower_fusion_op_pass.cc:2434] drr: cinn_op_yield_store matched.
I0228 19:41:15.948204 34354 ap_lower_fusion_op_pass.cc:308] drr: cinn_op_yield_store matched.
I0228 19:41:15.948254 34354 ap_lower_fusion_op_pass.cc:2413] drr: pd_op_left_full_add mismatched.
I0228 19:41:15.948274 34354 ap_lower_fusion_op_pass.cc:2413] drr: pd_op_right_full_add mismatched.
I0228 19:41:15.948352 34354 ap_lower_fusion_op_pass.cc:2434] drr: pd_op_multiply matched.
I0228 19:41:15.948359 34354 ap_lower_fusion_op_pass.cc:308] drr: pd_op_multiply matched.
I0228 19:41:15.948447 34354 ap_lower_fusion_op_pass.cc:2434] drr: pd_op_erf matched.
I0228 19:41:15.948453 34354 ap_lower_fusion_op_pass.cc:308] drr: pd_op_erf matched.
I0228 19:41:15.948555 34354 ap_lower_fusion_op_pass.cc:2434] drr: pd_op_left_full_add matched.
I0228 19:41:15.948561 34354 ap_lower_fusion_op_pass.cc:308] drr: pd_op_left_full_add matched.
I0228 19:41:15.948608 34354 ap_lower_fusion_op_pass.cc:2413] drr: pd_op_left_full_add mismatched.
I0228 19:41:15.948627 34354 ap_lower_fusion_op_pass.cc:2413] drr: pd_op_right_full_add mismatched.
I0228 19:41:15.948689 34354 ap_lower_fusion_op_pass.cc:2434] drr: pd_op_multiply matched.
I0228 19:41:15.948695 34354 ap_lower_fusion_op_pass.cc:308] drr: pd_op_multiply matched.
I0228 19:41:15.948786 34354 ap_lower_fusion_op_pass.cc:2434] drr: pd_op_multiply matched.
I0228 19:41:15.948792 34354 ap_lower_fusion_op_pass.cc:308] drr: pd_op_multiply matched.
I0228 19:41:15.948872 34354 ap_lower_fusion_op_pass.cc:2434] drr: cinn_op_yield_store matched.
I0228 19:41:15.948879 34354 ap_lower_fusion_op_pass.cc:308] drr: cinn_op_yield_store matched.
I0228 19:41:15.948930 34354 ap_lower_fusion_op_pass.cc:2413] drr: down_spider_load_from_global mismatched.
I0228 19:41:15.949007 34354 ap_lower_fusion_op_pass.cc:2434] drr: down_spider_relu matched.
I0228 19:41:15.949013 34354 ap_lower_fusion_op_pass.cc:308] drr: down_spider_relu matched.
I0228 19:41:15.949146 34354 ap_lower_fusion_op_pass.cc:2434] drr: cinn_broadcast_up_spider matched.
I0228 19:41:15.949152 34354 ap_lower_fusion_op_pass.cc:308] drr: cinn_broadcast_up_spider matched.
I0228 19:41:15.949296 34354 ap_lower_fusion_op_pass.cc:2413] drr: pd_op_left_full_add mismatched.
I0228 19:41:15.949381 34354 ap_lower_fusion_op_pass.cc:2434] drr: pd_op_right_full_add matched.
I0228 19:41:15.949388 34354 ap_lower_fusion_op_pass.cc:308] drr: pd_op_right_full_add matched.
I0228 19:41:15.949446 34354 ap_lower_fusion_op_pass.cc:2413] drr: down_spider_relu mismatched.
I0228 19:41:15.949470 34354 ap_lower_fusion_op_pass.cc:2413] drr: down_spider_relu mismatched.
I0228 19:41:15.949486 34354 ap_lower_fusion_op_pass.cc:2413] drr: pd_op_left_full_add mismatched.
I0228 19:41:15.949564 34354 ap_lower_fusion_op_pass.cc:2434] drr: pd_op_right_full_add matched.
I0228 19:41:15.949570 34354 ap_lower_fusion_op_pass.cc:308] drr: pd_op_right_full_add matched.
I0228 19:41:15.949628 34354 ap_lower_fusion_op_pass.cc:2413] drr: down_spider_add mismatched.
I0228 19:41:15.949651 34354 ap_lower_fusion_op_pass.cc:2413] drr: down_spider_relu mismatched.
I0228 19:41:15.949673 34354 ap_lower_fusion_op_pass.cc:2413] drr: down_spider_load_from_global mismatched.
I0228 19:41:15.949694 34354 ap_lower_fusion_op_pass.cc:2413] drr: cinn_broadcast_up_spider mismatched.
I0228 19:41:15.949715 34354 ap_lower_fusion_op_pass.cc:2413] drr: expand_up_spider mismatched.
I0228 19:41:15.949735 34354 ap_lower_fusion_op_pass.cc:2413] drr: left_down_spider_up_spider mismatched.
I0228 19:41:15.949753 34354 ap_lower_fusion_op_pass.cc:2413] drr: right_down_spider_up_spider mismatched.
I0228 19:41:15.949772 34354 ap_lower_fusion_op_pass.cc:2413] drr: triangle_left_down_spider_up_spider mismatched.
I0228 19:41:15.949851 34354 ap_lower_fusion_op_pass.cc:2434] drr: down_spider_relu matched.
I0228 19:41:15.949855 34354 ap_lower_fusion_op_pass.cc:308] drr: down_spider_relu matched.
I0228 19:41:15.949954 34354 ap_lower_fusion_op_pass.cc:2434] drr: down_spider_relu matched.
I0228 19:41:15.949960 34354 ap_lower_fusion_op_pass.cc:308] drr: down_spider_relu matched.
I0228 19:41:15.950058 34354 ap_lower_fusion_op_pass.cc:2434] drr: down_spider_relu matched.
I0228 19:41:15.950064 34354 ap_lower_fusion_op_pass.cc:308] drr: down_spider_relu matched.
I0228 19:41:15.950161 34354 ap_lower_fusion_op_pass.cc:2434] drr: down_spider_relu matched.
I0228 19:41:15.950168 34354 ap_lower_fusion_op_pass.cc:308] drr: down_spider_relu matched.
I0228 19:41:15.950276 34354 ap_lower_fusion_op_pass.cc:2434] drr: down_spider_add matched.
I0228 19:41:15.950378 34354 ap_lower_fusion_op_pass.cc:308] drr: down_spider_add matched.
I0228 19:41:15.950487 34354 ap_lower_fusion_op_pass.cc:2434] drr: down_spider_relu matched.
I0228 19:41:15.950495 34354 ap_lower_fusion_op_pass.cc:308] drr: down_spider_relu matched.
I0228 19:41:15.950542 34354 ap_lower_fusion_op_pass.cc:2413] drr: down_spider_load_from_global mismatched.
I0228 19:41:15.950565 34354 ap_lower_fusion_op_pass.cc:2413] drr: cinn_broadcast_up_spider mismatched.
I0228 19:41:15.950585 34354 ap_lower_fusion_op_pass.cc:2413] drr: expand_up_spider mismatched.
I0228 19:41:15.950605 34354 ap_lower_fusion_op_pass.cc:2413] drr: left_down_spider_up_spider mismatched.
I0228 19:41:15.950628 34354 ap_lower_fusion_op_pass.cc:2413] drr: right_down_spider_up_spider mismatched.
I0228 19:41:15.950726 34354 ap_lower_fusion_op_pass.cc:2434] drr: triangle_left_down_spider_up_spider matched.
I0228 19:41:15.950732 34354 ap_lower_fusion_op_pass.cc:308] drr: triangle_left_down_spider_up_spider matched.
I0228 19:41:15.950767 34354 ap_lower_fusion_op_pass.cc:2413] drr: cinn_broadcast_up_spider mismatched.
I0228 19:41:15.950788 34354 ap_lower_fusion_op_pass.cc:2413] drr: expand_up_spider mismatched.
I0228 19:41:15.950807 34354 ap_lower_fusion_op_pass.cc:2413] drr: left_down_spider_up_spider mismatched.
I0228 19:41:15.950826 34354 ap_lower_fusion_op_pass.cc:2413] drr: right_down_spider_up_spider mismatched.
I0228 19:41:15.950845 34354 ap_lower_fusion_op_pass.cc:2413] drr: triangle_left_down_spider_up_spider mismatched.
I0228 19:41:15.950867 34354 ap_lower_fusion_op_pass.cc:2413] drr: down_spider_load_from_global mismatched.
I0228 19:41:15.950887 34354 ap_lower_fusion_op_pass.cc:2413] drr: cinn_broadcast_up_spider mismatched.
I0228 19:41:15.950906 34354 ap_lower_fusion_op_pass.cc:2413] drr: expand_up_spider mismatched.
I0228 19:41:15.950925 34354 ap_lower_fusion_op_pass.cc:2413] drr: left_down_spider_up_spider mismatched.
I0228 19:41:15.950944 34354 ap_lower_fusion_op_pass.cc:2413] drr: right_down_spider_up_spider mismatched.
I0228 19:41:15.950961 34354 ap_lower_fusion_op_pass.cc:2413] drr: triangle_left_down_spider_up_spider mismatched.
I0228 19:41:15.952209 34354 ap_lower_fusion_op_pass.cc:2413] drr: tmp_access_drr_pass_1 mismatched.
I0228 19:41:15.952383 34354 ap_lower_fusion_op_pass.cc:2434] drr: tmp_access_drr_pass_1 matched.
I0228 19:41:15.952392 34354 ap_lower_fusion_op_pass.cc:308] drr: tmp_access_drr_pass_1 matched.
I0228 19:41:15.953107 34354 ap_lower_fusion_op_pass.cc:2434] drr: tmp_access_drr_pass_1 matched.
I0228 19:41:15.953120 34354 ap_lower_fusion_op_pass.cc:308] drr: tmp_access_drr_pass_1 matched.
E0228 19:41:15.953274 34354 builtin_functions.cc:121] Print
index_func_unique_id2index_program:
 OrderedDict([[input2, {
    (%0) = "pd_op.data" () {dtype:float32,name:"mm_out",place:Place(undefined:0),shape:[4,9216,768],stop_gradient:[true]} : () -> tensor<4x9216x768xf32>
    (%1) = "pd_op.full_int_array" () {dtype:int64,place:Place(cpu),stop_gradient:[true],value:[0,1]} : () -> tensor<2xi64>
    (%2) = "pd_op.sum" (%0, %1) {dtype:Undefined,keepdim:false,stop_gradient:[true]} : (tensor<4x9216x768xf32>, tensor<2xi64>) -> tensor<768xf32>
    () = "cf.yield" (%2) {} : (tensor<768xf32>) -> 
}
]])
I0228 19:41:15.953802 34354 ap_lower_fusion_op_pass.cc:2434] drr: tmp_access_drr_pass_1 matched.
I0228 19:41:15.953814 34354 ap_lower_fusion_op_pass.cc:308] drr: tmp_access_drr_pass_1 matched.
I0228 19:41:15.954705 34354 ap_lower_fusion_op_pass.cc:2413] drr: tmp_access_drr_pass_1 mismatched.
I0228 19:41:15.954789 34354 ap_lower_fusion_op_pass.cc:2434] drr: tmp_access_drr_pass_1 matched.
I0228 19:41:15.954795 34354 ap_lower_fusion_op_pass.cc:308] drr: tmp_access_drr_pass_1 matched.
I0228 19:41:15.955533 34354 ap_lower_fusion_op_pass.cc:2434] drr: tmp_access_drr_pass_1 matched.
I0228 19:41:15.955546 34354 ap_lower_fusion_op_pass.cc:308] drr: tmp_access_drr_pass_1 matched.
E0228 19:41:15.955677 34354 builtin_functions.cc:121] Print
mut_program: {
    (%0) = "pd_op.data" () {dtype:float32,name:"input2",place:Place(undefined:0),shape:[768],stop_gradient:[true]} : () -> tensor<768xf32>
    (%1) = "ap_op.load_from_global" (%0) {index_func_unique_id:"input2"} : (tensor<768xf32>) -> tensor<768xf32>
    (%2) = "ap_op.load_from_register" () {name:"mm_out",register_var_name:"x",symbolic_shape_or_data:,type:tensor<4x9216x768xf32>} : () -> tensor<4x9216x768xf32>
    (%3) = "cinn_op.broadcast" (%1) {broadcast_axes:[2],out_shape:[4,9216,768],stop_gradient:[true]} : (tensor<768xf32>) -> tensor<4x9216x768xf32>
    (%4) = "pd_op.add" (%2, %3) {stop_gradient:[true]} : (tensor<4x9216x768xf32>, tensor<4x9216x768xf32>) -> tensor<4x9216x768xf32>
    (%5) = "cinn_op.yield_store" (%4) {} : (tensor<4x9216x768xf32>) -> tensor<4x9216x768xf32>
    () = "ap_op.store_to_register" (%5) {name:"output",register_var_name:"out"} : (tensor<4x9216x768xf32>) -> 
}
E0228 19:41:15.956483 34354 builtin_functions.cc:121] Print
-- kargs_name_pair_list: [[<InTensorDataPtrKernelArgId object at 0x5314bfc0>, input0], [<InTensorDataPtrKernelArgId object at 0x4f2b7320>, input1], [<OutTensorDataPtrKernelArgId object at 0x53160b60>, output], [4, input0_dim0], [9216, input0_dim1], [192, input0_dim2], [192, input1_dim0], [768, input1_dim1]]
E0228 19:41:15.959055 34354 builtin_functions.cc:121] Print
-- matmul_binary_epilogue_code:
 float op1_out0 = (args.in_ptr_0[(coord.column)]);
    float op4_out0 = (x + op1_out0);
    out = op4_out0;
E0228 19:41:15.959070 34354 builtin_functions.cc:121] Print
----begin making project
E0228 19:41:15.959864 34354 builtin_functions.cc:121] Print
----end making project
E0228 19:41:15.961259 34354 builtin_functions.cc:121] Print
....begin copy program
E0228 19:41:15.961387 34354 ap_lower_fusion_op_pass.cc:2279] 
Traceback (most recent call last):
  File "/work/Paddle/paddle/ap/src/paddle/pass/ap_lower_fusion_op_pass.cc", line 2294, in operator()
    GetMatchCtx(op)
  File "/work/Paddle/paddle/ap/src/paddle/pass/ap_lower_fusion_op_pass.cc", line 1792, in operator()
    ConstraintApplier{}.Match(ctx_.drr_ctx, opt_graph_match_ctx.value())
  File "/work/Paddle/paddle/ap/src/paddle/pass/ap_lower_fusion_op_pass.cc", line 1622, in operator()
    ap_drr_helper.Interpret(constraint_func, args)
  File "/work/Paddle/paddle/ap/include/axpr/cps_interpreter.h", line 69, in operator()
    InterpretComposedCallUntilHalt(&composed_call)
  File "/work/Paddle/paddle/ap/include/axpr/cps_interpreter.h", line 101, in operator()
    InterpretComposedCall(composed_call)
  File "/work/Paddle/paddle/ap/include/axpr/cps_interpreter.h", line 568, in operator()
    func(obj, composed_call->args)
  File "/work/Paddle/paddle/ap/src/paddle/pass/ir_helper_method_class.cc", line 270, in operator()
    InitIrMapping(NameGetter, pir::GetUsedExternalValue(*block), &ir_mapping, new_program->block())
  File "/work/Paddle/paddle/ap/src/paddle/pass/ir_helper_method_class.cc", line 305, in operator()
    NameGetter(free_value)
  File "/work/Paddle/paddle/ap/src/paddle/pass/ir_helper_method_class.cc", line 140, in operator()
    iter != map.end()

ValueError: Check 'iter != map.end()' failed.
pass_name: matmul_binary_fusion
E0228 19:41:15.961949 34354 ap_lower_fusion_op_pass.cc:2279] 
Traceback (most recent call last):
  File "/work/Paddle/paddle/ap/src/paddle/pass/ap_lower_fusion_op_pass.cc", line 2294, in operator()
    GetMatchCtx(op)
  File "/work/Paddle/paddle/ap/src/paddle/pass/ap_lower_fusion_op_pass.cc", line 1792, in operator()
    ConstraintApplier{}.Match(ctx_.drr_ctx, opt_graph_match_ctx.value())
  File "/work/Paddle/paddle/ap/src/paddle/pass/ap_lower_fusion_op_pass.cc", line 1622, in operator()
    ap_drr_helper.Interpret(constraint_func, args)
  File "/work/Paddle/paddle/ap/include/axpr/cps_interpreter.h", line 69, in operator()
    InterpretComposedCallUntilHalt(&composed_call)
  File "/work/Paddle/paddle/ap/include/axpr/cps_interpreter.h", line 101, in operator()
    InterpretComposedCall(composed_call)
  File "/work/Paddle/paddle/ap/include/axpr/cps_interpreter.h", line 568, in operator()
    func(obj, composed_call->args)
  File "/work/Paddle/paddle/ap/src/paddle/pass/ir_helper_method_class.cc", line 270, in operator()
    InitIrMapping(NameGetter, pir::GetUsedExternalValue(*block), &ir_mapping, new_program->block())
  File "/work/Paddle/paddle/ap/src/paddle/pass/ir_helper_method_class.cc", line 305, in operator()
    NameGetter(free_value)
  File "/work/Paddle/paddle/ap/src/paddle/pass/ir_helper_method_class.cc", line 140, in operator()
    iter != map.end()

ValueError: Check 'iter != map.end()' failed.
pass_name: matmul_trinary_fusion
E0228 19:41:15.962214 34354 builtin_functions.cc:121] Print
....begin copy program
E0228 19:41:15.963126 34354 builtin_functions.cc:121] Print
....exit copy program
E0228 19:41:15.963212 34354 builtin_functions.cc:121] Print
before-access_topo_pass {
    (%0) = "pd_op.data" () {dtype:float32,name:"input2",place:Place(undefined:0),shape:[768],stop_gradient:[true]} : () -> tensor<768xf32>
    (%1) = "pd_op.data" () {dtype:float32,name:"mm_out",place:Place(undefined:0),shape:[4,9216,768],stop_gradient:[true]} : () -> tensor<4x9216x768xf32>
    (%2) = "cinn_op.broadcast" (%0) {broadcast_axes:[2],out_shape:[4,9216,768],stop_gradient:[true]} : (tensor<768xf32>) -> tensor<4x9216x768xf32>
    (%3) = "pd_op.add" (%1, %2) {stop_gradient:[true]} : (tensor<4x9216x768xf32>, tensor<4x9216x768xf32>) -> tensor<4x9216x768xf32>
    (%4) = "cinn_op.yield_store" (%3) {} : (tensor<4x9216x768xf32>) -> tensor<4x9216x768xf32>
    (%5) = "pd_op.full" () {dtype:float32,place:Place(undefined:0),shape:[4,9216,768],stop_gradient:[true],value:0.707107} : () -> tensor<4x9216x768xf32>
    (%6) = "pd_op.multiply" (%3, %5) {stop_gradient:[true]} : (tensor<4x9216x768xf32>, tensor<4x9216x768xf32>) -> tensor<4x9216x768xf32>
    (%7) = "pd_op.erf" (%6) {stop_gradient:[true]} : (tensor<4x9216x768xf32>) -> tensor<4x9216x768xf32>
    (%8) = "pd_op.full" () {dtype:float32,place:Place(undefined:0),shape:[4,9216,768],stop_gradient:[true],value:1} : () -> tensor<4x9216x768xf32>
    (%9) = "pd_op.add" (%8, %7) {stop_gradient:[true]} : (tensor<4x9216x768xf32>, tensor<4x9216x768xf32>) -> tensor<4x9216x768xf32>
    (%10) = "pd_op.full" () {dtype:float32,place:Place(undefined:0),shape:[4,9216,768],stop_gradient:[true],value:0.5} : () -> tensor<4x9216x768xf32>
    (%11) = "pd_op.multiply" (%3, %10) {stop_gradient:[true]} : (tensor<4x9216x768xf32>, tensor<4x9216x768xf32>) -> tensor<4x9216x768xf32>
    (%12) = "pd_op.multiply" (%11, %9) {stop_gradient:[true]} : (tensor<4x9216x768xf32>, tensor<4x9216x768xf32>) -> tensor<4x9216x768xf32>
    (%13) = "cinn_op.yield_store" (%12) {} : (tensor<4x9216x768xf32>) -> tensor<4x9216x768xf32>
    () = "cf.yield" (%4, %13) {} : (tensor<4x9216x768xf32>, tensor<4x9216x768xf32>) -> 
}
I0228 19:41:15.964339 34354 ap_lower_fusion_op_pass.cc:2434] drr: tmp_access_drr_pass_1 matched.
I0228 19:41:15.964352 34354 ap_lower_fusion_op_pass.cc:308] drr: tmp_access_drr_pass_1 matched.
I0228 19:41:15.964500 34354 ap_lower_fusion_op_pass.cc:2434] drr: tmp_access_drr_pass_1 matched.
I0228 19:41:15.964507 34354 ap_lower_fusion_op_pass.cc:308] drr: tmp_access_drr_pass_1 matched.
E0228 19:41:15.964768 34354 builtin_functions.cc:121] Print
after-init-access_topo_pass {
    (%0) = "pd_op.data" () {dtype:float32,name:"input2",place:Place(undefined:0),shape:[768],stop_gradient:[true]} : () -> tensor<768xf32>
    (%1) = "pd_op.data" () {dtype:float32,name:"mm_out",place:Place(undefined:0),shape:[4,9216,768],stop_gradient:[true]} : () -> tensor<4x9216x768xf32>
    (%2) = "ap_op.down_spider" (%1) {} : (tensor<4x9216x768xf32>) -> tensor<4x9216x768xf32>
    (%3) = "cinn_op.broadcast" (%0) {broadcast_axes:[2],out_shape:[4,9216,768],stop_gradient:[true]} : (tensor<768xf32>) -> tensor<4x9216x768xf32>
    (%4) = "pd_op.add" (%2, %3) {stop_gradient:[true]} : (tensor<4x9216x768xf32>, tensor<4x9216x768xf32>) -> tensor<4x9216x768xf32>
    (%5) = "cinn_op.yield_store" (%4) {} : (tensor<4x9216x768xf32>) -> tensor<4x9216x768xf32>
    (%6) = "pd_op.full" () {dtype:float32,place:Place(undefined:0),shape:[4,9216,768],stop_gradient:[true],value:0.707107} : () -> tensor<4x9216x768xf32>
    (%7) = "pd_op.multiply" (%4, %6) {stop_gradient:[true]} : (tensor<4x9216x768xf32>, tensor<4x9216x768xf32>) -> tensor<4x9216x768xf32>
    (%8) = "pd_op.erf" (%7) {stop_gradient:[true]} : (tensor<4x9216x768xf32>) -> tensor<4x9216x768xf32>
    (%9) = "pd_op.full" () {dtype:float32,place:Place(undefined:0),shape:[4,9216,768],stop_gradient:[true],value:1} : () -> tensor<4x9216x768xf32>
    (%10) = "pd_op.add" (%9, %8) {stop_gradient:[true]} : (tensor<4x9216x768xf32>, tensor<4x9216x768xf32>) -> tensor<4x9216x768xf32>
    (%11) = "pd_op.full" () {dtype:float32,place:Place(undefined:0),shape:[4,9216,768],stop_gradient:[true],value:0.5} : () -> tensor<4x9216x768xf32>
    (%12) = "pd_op.multiply" (%4, %11) {stop_gradient:[true]} : (tensor<4x9216x768xf32>, tensor<4x9216x768xf32>) -> tensor<4x9216x768xf32>
    (%13) = "pd_op.multiply" (%12, %10) {stop_gradient:[true]} : (tensor<4x9216x768xf32>, tensor<4x9216x768xf32>) -> tensor<4x9216x768xf32>
    (%14) = "cinn_op.yield_store" (%13) {} : (tensor<4x9216x768xf32>) -> tensor<4x9216x768xf32>
    (%15) = "pd_op.data" () {dtype:float32,name:"output",place:Place(undefined:0),shape:[4,9216,768],stop_gradient:[true]} : () -> tensor<4x9216x768xf32>
    () = "ap_op.up_spider" (%5, %15) {} : (tensor<4x9216x768xf32>, tensor<4x9216x768xf32>) -> 
}
I0228 19:41:15.971693 34354 ap_lower_fusion_op_pass.cc:2434] drr: down_spider_add matched.
I0228 19:41:15.971707 34354 ap_lower_fusion_op_pass.cc:308] drr: down_spider_add matched.
I0228 19:41:15.971807 34354 ap_lower_fusion_op_pass.cc:2434] drr: cinn_op_yield_store matched.
I0228 19:41:15.971813 34354 ap_lower_fusion_op_pass.cc:308] drr: cinn_op_yield_store matched.
I0228 19:41:15.971864 34354 ap_lower_fusion_op_pass.cc:2413] drr: pd_op_left_full_add mismatched.
I0228 19:41:15.971884 34354 ap_lower_fusion_op_pass.cc:2413] drr: pd_op_right_full_add mismatched.
I0228 19:41:15.971947 34354 ap_lower_fusion_op_pass.cc:2434] drr: pd_op_multiply matched.
I0228 19:41:15.971953 34354 ap_lower_fusion_op_pass.cc:308] drr: pd_op_multiply matched.
I0228 19:41:15.972039 34354 ap_lower_fusion_op_pass.cc:2434] drr: pd_op_erf matched.
I0228 19:41:15.972045 34354 ap_lower_fusion_op_pass.cc:308] drr: pd_op_erf matched.
I0228 19:41:15.972146 34354 ap_lower_fusion_op_pass.cc:2434] drr: pd_op_left_full_add matched.
I0228 19:41:15.972151 34354 ap_lower_fusion_op_pass.cc:308] drr: pd_op_left_full_add matched.
I0228 19:41:15.972198 34354 ap_lower_fusion_op_pass.cc:2413] drr: pd_op_left_full_add mismatched.
I0228 19:41:15.972218 34354 ap_lower_fusion_op_pass.cc:2413] drr: pd_op_right_full_add mismatched.
I0228 19:41:15.972288 34354 ap_lower_fusion_op_pass.cc:2434] drr: pd_op_multiply matched.
I0228 19:41:15.972294 34354 ap_lower_fusion_op_pass.cc:308] drr: pd_op_multiply matched.
I0228 19:41:15.972385 34354 ap_lower_fusion_op_pass.cc:2434] drr: pd_op_multiply matched.
I0228 19:41:15.972393 34354 ap_lower_fusion_op_pass.cc:308] drr: pd_op_multiply matched.
I0228 19:41:15.972471 34354 ap_lower_fusion_op_pass.cc:2434] drr: cinn_op_yield_store matched.
I0228 19:41:15.972477 34354 ap_lower_fusion_op_pass.cc:308] drr: cinn_op_yield_store matched.
I0228 19:41:15.972525 34354 ap_lower_fusion_op_pass.cc:2413] drr: cinn_broadcast_up_spider mismatched.
I0228 19:41:15.972548 34354 ap_lower_fusion_op_pass.cc:2413] drr: expand_up_spider mismatched.
I0228 19:41:15.972569 34354 ap_lower_fusion_op_pass.cc:2413] drr: left_down_spider_up_spider mismatched.
I0228 19:41:15.972589 34354 ap_lower_fusion_op_pass.cc:2413] drr: right_down_spider_up_spider mismatched.
I0228 19:41:15.972608 34354 ap_lower_fusion_op_pass.cc:2413] drr: triangle_left_down_spider_up_spider mismatched.
I0228 19:41:15.972685 34354 ap_lower_fusion_op_pass.cc:2434] drr: down_spider_relu matched.
I0228 19:41:15.972692 34354 ap_lower_fusion_op_pass.cc:308] drr: down_spider_relu matched.
I0228 19:41:15.972841 34354 ap_lower_fusion_op_pass.cc:2434] drr: cinn_broadcast_up_spider matched.
I0228 19:41:15.972849 34354 ap_lower_fusion_op_pass.cc:308] drr: cinn_broadcast_up_spider matched.
I0228 19:41:15.972981 34354 ap_lower_fusion_op_pass.cc:2413] drr: pd_op_left_full_add mismatched.
I0228 19:41:15.973065 34354 ap_lower_fusion_op_pass.cc:2434] drr: pd_op_right_full_add matched.
I0228 19:41:15.973071 34354 ap_lower_fusion_op_pass.cc:308] drr: pd_op_right_full_add matched.
I0228 19:41:15.973129 34354 ap_lower_fusion_op_pass.cc:2413] drr: down_spider_relu mismatched.
I0228 19:41:15.973152 34354 ap_lower_fusion_op_pass.cc:2413] drr: down_spider_relu mismatched.
I0228 19:41:15.973168 34354 ap_lower_fusion_op_pass.cc:2413] drr: pd_op_left_full_add mismatched.
I0228 19:41:15.973240 34354 ap_lower_fusion_op_pass.cc:2434] drr: pd_op_right_full_add matched.
I0228 19:41:15.973246 34354 ap_lower_fusion_op_pass.cc:308] drr: pd_op_right_full_add matched.
I0228 19:41:15.973313 34354 ap_lower_fusion_op_pass.cc:2413] drr: down_spider_add mismatched.
I0228 19:41:15.973336 34354 ap_lower_fusion_op_pass.cc:2413] drr: down_spider_relu mismatched.
I0228 19:41:15.973357 34354 ap_lower_fusion_op_pass.cc:2413] drr: cinn_broadcast_up_spider mismatched.
I0228 19:41:15.973378 34354 ap_lower_fusion_op_pass.cc:2413] drr: expand_up_spider mismatched.
I0228 19:41:15.973454 34354 ap_lower_fusion_op_pass.cc:2434] drr: left_down_spider_up_spider matched.
I0228 19:41:15.973460 34354 ap_lower_fusion_op_pass.cc:308] drr: left_down_spider_up_spider matched.
I0228 19:41:15.973511 34354 ap_lower_fusion_op_pass.cc:2413] drr: cinn_broadcast_up_spider mismatched.
I0228 19:41:15.973533 34354 ap_lower_fusion_op_pass.cc:2413] drr: expand_up_spider mismatched.
I0228 19:41:15.973552 34354 ap_lower_fusion_op_pass.cc:2413] drr: left_down_spider_up_spider mismatched.
I0228 19:41:15.973572 34354 ap_lower_fusion_op_pass.cc:2413] drr: right_down_spider_up_spider mismatched.
I0228 19:41:15.973591 34354 ap_lower_fusion_op_pass.cc:2413] drr: triangle_left_down_spider_up_spider mismatched.
I0228 19:41:15.973667 34354 ap_lower_fusion_op_pass.cc:2434] drr: down_spider_relu matched.
I0228 19:41:15.973672 34354 ap_lower_fusion_op_pass.cc:308] drr: down_spider_relu matched.
I0228 19:41:15.973773 34354 ap_lower_fusion_op_pass.cc:2434] drr: down_spider_relu matched.
I0228 19:41:15.973778 34354 ap_lower_fusion_op_pass.cc:308] drr: down_spider_relu matched.
I0228 19:41:15.973876 34354 ap_lower_fusion_op_pass.cc:2434] drr: down_spider_relu matched.
I0228 19:41:15.973882 34354 ap_lower_fusion_op_pass.cc:308] drr: down_spider_relu matched.
I0228 19:41:15.973977 34354 ap_lower_fusion_op_pass.cc:2434] drr: down_spider_relu matched.
I0228 19:41:15.973984 34354 ap_lower_fusion_op_pass.cc:308] drr: down_spider_relu matched.
I0228 19:41:15.974090 34354 ap_lower_fusion_op_pass.cc:2434] drr: down_spider_add matched.
I0228 19:41:15.974097 34354 ap_lower_fusion_op_pass.cc:308] drr: down_spider_add matched.
I0228 19:41:15.974203 34354 ap_lower_fusion_op_pass.cc:2434] drr: down_spider_relu matched.
I0228 19:41:15.974210 34354 ap_lower_fusion_op_pass.cc:308] drr: down_spider_relu matched.
I0228 19:41:15.974256 34354 ap_lower_fusion_op_pass.cc:2413] drr: cinn_broadcast_up_spider mismatched.
I0228 19:41:15.974283 34354 ap_lower_fusion_op_pass.cc:2413] drr: expand_up_spider mismatched.
I0228 19:41:15.974308 34354 ap_lower_fusion_op_pass.cc:2413] drr: left_down_spider_up_spider mismatched.
I0228 19:41:15.974327 34354 ap_lower_fusion_op_pass.cc:2413] drr: right_down_spider_up_spider mismatched.
I0228 19:41:15.974354 34354 ap_lower_fusion_op_pass.cc:2413] drr: triangle_left_down_spider_up_spider mismatched.
I0228 19:41:15.974375 34354 ap_lower_fusion_op_pass.cc:2413] drr: cinn_broadcast_up_spider mismatched.
I0228 19:41:15.974395 34354 ap_lower_fusion_op_pass.cc:2413] drr: expand_up_spider mismatched.
I0228 19:41:15.974413 34354 ap_lower_fusion_op_pass.cc:2413] drr: left_down_spider_up_spider mismatched.
I0228 19:41:15.974437 34354 ap_lower_fusion_op_pass.cc:2413] drr: right_down_spider_up_spider mismatched.
I0228 19:41:15.974535 34354 ap_lower_fusion_op_pass.cc:2434] drr: triangle_left_down_spider_up_spider matched.
I0228 19:41:15.974541 34354 ap_lower_fusion_op_pass.cc:308] drr: triangle_left_down_spider_up_spider matched.
I0228 19:41:15.974575 34354 ap_lower_fusion_op_pass.cc:2413] drr: cinn_broadcast_up_spider mismatched.
I0228 19:41:15.974596 34354 ap_lower_fusion_op_pass.cc:2413] drr: expand_up_spider mismatched.
I0228 19:41:15.974615 34354 ap_lower_fusion_op_pass.cc:2413] drr: left_down_spider_up_spider mismatched.
I0228 19:41:15.974637 34354 ap_lower_fusion_op_pass.cc:2413] drr: right_down_spider_up_spider mismatched.
I0228 19:41:15.974653 34354 ap_lower_fusion_op_pass.cc:2413] drr: triangle_left_down_spider_up_spider mismatched.
I0228 19:41:15.974669 34354 ap_lower_fusion_op_pass.cc:2413] drr: cinn_broadcast_up_spider mismatched.
I0228 19:41:15.974689 34354 ap_lower_fusion_op_pass.cc:2413] drr: expand_up_spider mismatched.
I0228 19:41:15.974707 34354 ap_lower_fusion_op_pass.cc:2413] drr: left_down_spider_up_spider mismatched.
I0228 19:41:15.974725 34354 ap_lower_fusion_op_pass.cc:2413] drr: right_down_spider_up_spider mismatched.
I0228 19:41:15.974749 34354 ap_lower_fusion_op_pass.cc:2413] drr: triangle_left_down_spider_up_spider mismatched.
I0228 19:41:15.974769 34354 ap_lower_fusion_op_pass.cc:2413] drr: cinn_broadcast_up_spider mismatched.
I0228 19:41:15.974788 34354 ap_lower_fusion_op_pass.cc:2413] drr: expand_up_spider mismatched.
I0228 19:41:15.974805 34354 ap_lower_fusion_op_pass.cc:2413] drr: left_down_spider_up_spider mismatched.
I0228 19:41:15.974823 34354 ap_lower_fusion_op_pass.cc:2413] drr: right_down_spider_up_spider mismatched.
I0228 19:41:15.974840 34354 ap_lower_fusion_op_pass.cc:2413] drr: triangle_left_down_spider_up_spider mismatched.
I0228 19:41:15.974861 34354 ap_lower_fusion_op_pass.cc:2413] drr: cinn_broadcast_up_spider mismatched.
I0228 19:41:15.974880 34354 ap_lower_fusion_op_pass.cc:2413] drr: expand_up_spider mismatched.
I0228 19:41:15.974898 34354 ap_lower_fusion_op_pass.cc:2413] drr: left_down_spider_up_spider mismatched.
I0228 19:41:15.974917 34354 ap_lower_fusion_op_pass.cc:2413] drr: right_down_spider_up_spider mismatched.
I0228 19:41:15.974941 34354 ap_lower_fusion_op_pass.cc:2413] drr: triangle_left_down_spider_up_spider mismatched.
E0228 19:41:15.975016 34354 builtin_functions.cc:121] Print
after-apply-access_topo_pass {
    (%0) = "pd_op.data" () {dtype:float32,name:"input2",place:Place(undefined:0),shape:[768],stop_gradient:[true]} : () -> tensor<768xf32>
    (%1) = "pd_op.data" () {dtype:float32,name:"mm_out",place:Place(undefined:0),shape:[4,9216,768],stop_gradient:[true]} : () -> tensor<4x9216x768xf32>
    (%2) = "pd_op.full_int_array" () {dtype:int64,place:Place(cpu),stop_gradient:[true],value:[0,1]} : () -> tensor<2xi64>
    (%3) = "pd_op.sum" (%1, %2) {dtype:Undefined,keepdim:false,stop_gradient:[true]} : (tensor<4x9216x768xf32>, tensor<2xi64>) -> tensor<768xf32>
    () = "ap_op.up_spider" (%3, %0) {} : (tensor<768xf32>, tensor<768xf32>) -> 
    (%4) = "pd_op.data" () {dtype:float32,name:"output",place:Place(undefined:0),shape:[4,9216,768],stop_gradient:[true]} : () -> tensor<4x9216x768xf32>
    () = "ap_op.up_spider" (%1, %4) {} : (tensor<4x9216x768xf32>, tensor<4x9216x768xf32>) -> 
}
E0228 19:41:15.975111 34354 builtin_functions.cc:121] Print
after-remove-data-op-pair-pass {
    (%0) = "pd_op.data" () {dtype:float32,name:"input2",place:Place(undefined:0),shape:[768],stop_gradient:[true]} : () -> tensor<768xf32>
    (%1) = "pd_op.data" () {dtype:float32,name:"mm_out",place:Place(undefined:0),shape:[4,9216,768],stop_gradient:[true]} : () -> tensor<4x9216x768xf32>
    (%2) = "pd_op.full_int_array" () {dtype:int64,place:Place(cpu),stop_gradient:[true],value:[0,1]} : () -> tensor<2xi64>
    (%3) = "pd_op.sum" (%1, %2) {dtype:Undefined,keepdim:false,stop_gradient:[true]} : (tensor<4x9216x768xf32>, tensor<2xi64>) -> tensor<768xf32>
    () = "ap_op.up_spider" (%3, %0) {} : (tensor<768xf32>, tensor<768xf32>) -> 
    (%4) = "pd_op.data" () {dtype:float32,name:"output",place:Place(undefined:0),shape:[4,9216,768],stop_gradient:[true]} : () -> tensor<4x9216x768xf32>
    () = "ap_op.up_spider" (%1, %4) {} : (tensor<4x9216x768xf32>, tensor<4x9216x768xf32>) -> 
}
I0228 19:41:15.976047 34354 ap_lower_fusion_op_pass.cc:2413] drr: tmp_access_drr_pass_1 mismatched.
I0228 19:41:15.976071 34354 ap_lower_fusion_op_pass.cc:2413] drr: tmp_access_drr_pass_1 mismatched.
I0228 19:41:15.976313 34354 ap_lower_fusion_op_pass.cc:2434] drr: tmp_access_drr_pass_1 matched.
I0228 19:41:15.976321 34354 ap_lower_fusion_op_pass.cc:308] drr: tmp_access_drr_pass_1 matched.
E0228 19:41:15.976389 34354 builtin_functions.cc:121] Print
after-remove_data_op2sum_op2data_op_pass {
    (%0) = "pd_op.data" () {dtype:float32,name:"mm_out",place:Place(undefined:0),shape:[4,9216,768],stop_gradient:[true]} : () -> tensor<4x9216x768xf32>
    (%1) = "pd_op.data" () {dtype:float32,name:"output",place:Place(undefined:0),shape:[4,9216,768],stop_gradient:[true]} : () -> tensor<4x9216x768xf32>
    () = "ap_op.up_spider" (%0, %1) {} : (tensor<4x9216x768xf32>, tensor<4x9216x768xf32>) -> 
}
I0228 19:41:15.977257 34354 ap_lower_fusion_op_pass.cc:2413] drr: tmp_access_drr_pass_2 mismatched.
I0228 19:41:15.977388 34354 ap_lower_fusion_op_pass.cc:2413] drr: tmp_access_drr_pass_2 mismatched.
I0228 19:41:15.977398 34354 ap_lower_fusion_op_pass.cc:2413] drr: tmp_access_drr_pass_2 mismatched.
I0228 19:41:15.977419 34354 ap_lower_fusion_op_pass.cc:2413] drr: tmp_access_drr_pass_1 mismatched.
I0228 19:41:15.977510 34354 ap_lower_fusion_op_pass.cc:2434] drr: tmp_access_drr_pass_1 matched.
I0228 19:41:15.977516 34354 ap_lower_fusion_op_pass.cc:308] drr: tmp_access_drr_pass_1 matched.
E0228 19:41:15.977552 34354 builtin_functions.cc:121] Print
after-remove-input-output-access_topo_pass {
}
I0228 19:41:15.977772 34354 ap_lower_fusion_op_pass.cc:2299] drr: matmul_binary_fusion matched.
I0228 19:41:15.977778 34354 ap_lower_fusion_op_pass.cc:308] drr: matmul_binary_fusion matched.
I0228 19:41:15.979789 34354 ap_lower_fusion_op_pass.cc:2434] drr: tmp_access_drr_pass_1 matched.
I0228 19:41:15.979804 34354 ap_lower_fusion_op_pass.cc:308] drr: tmp_access_drr_pass_1 matched.
I0228 19:41:15.979959 34354 ap_lower_fusion_op_pass.cc:2434] drr: tmp_access_drr_pass_1 matched.
I0228 19:41:15.979969 34354 ap_lower_fusion_op_pass.cc:308] drr: tmp_access_drr_pass_1 matched.
I0228 19:41:15.980731 34354 ap_lower_fusion_op_pass.cc:2434] drr: tmp_access_drr_pass_1 matched.
I0228 19:41:15.980743 34354 ap_lower_fusion_op_pass.cc:308] drr: tmp_access_drr_pass_1 matched.
I0228 19:41:15.981689 34354 ap_lower_fusion_op_pass.cc:2434] drr: tmp_access_drr_pass_1 matched.
I0228 19:41:15.981703 34354 ap_lower_fusion_op_pass.cc:308] drr: tmp_access_drr_pass_1 matched.
I0228 19:41:15.988816 34354 ap_lower_fusion_op_pass.cc:2413] drr: down_spider_load_from_global mismatched.
I0228 19:41:15.988907 34354 ap_lower_fusion_op_pass.cc:2434] drr: down_spider_load_from_global matched.
I0228 19:41:15.988914 34354 ap_lower_fusion_op_pass.cc:308] drr: down_spider_load_from_global matched.
I0228 19:41:15.989032 34354 ap_lower_fusion_op_pass.cc:2434] drr: down_spider_add matched.
I0228 19:41:15.989038 34354 ap_lower_fusion_op_pass.cc:308] drr: down_spider_add matched.
I0228 19:41:15.989127 34354 ap_lower_fusion_op_pass.cc:2434] drr: cinn_op_yield_store matched.
I0228 19:41:15.989133 34354 ap_lower_fusion_op_pass.cc:308] drr: cinn_op_yield_store matched.
I0228 19:41:15.989183 34354 ap_lower_fusion_op_pass.cc:2413] drr: pd_op_left_full_add mismatched.
I0228 19:41:15.989203 34354 ap_lower_fusion_op_pass.cc:2413] drr: pd_op_right_full_add mismatched.
I0228 19:41:15.989266 34354 ap_lower_fusion_op_pass.cc:2434] drr: pd_op_multiply matched.
I0228 19:41:15.989272 34354 ap_lower_fusion_op_pass.cc:308] drr: pd_op_multiply matched.
I0228 19:41:15.989385 34354 ap_lower_fusion_op_pass.cc:2434] drr: pd_op_erf matched.
I0228 19:41:15.989392 34354 ap_lower_fusion_op_pass.cc:308] drr: pd_op_erf matched.
I0228 19:41:15.989492 34354 ap_lower_fusion_op_pass.cc:2434] drr: pd_op_left_full_add matched.
I0228 19:41:15.989499 34354 ap_lower_fusion_op_pass.cc:308] drr: pd_op_left_full_add matched.
I0228 19:41:15.989547 34354 ap_lower_fusion_op_pass.cc:2413] drr: pd_op_left_full_add mismatched.
I0228 19:41:15.989565 34354 ap_lower_fusion_op_pass.cc:2413] drr: pd_op_right_full_add mismatched.
I0228 19:41:15.989629 34354 ap_lower_fusion_op_pass.cc:2434] drr: pd_op_multiply matched.
I0228 19:41:15.989635 34354 ap_lower_fusion_op_pass.cc:308] drr: pd_op_multiply matched.
I0228 19:41:15.989727 34354 ap_lower_fusion_op_pass.cc:2434] drr: pd_op_multiply matched.
I0228 19:41:15.989732 34354 ap_lower_fusion_op_pass.cc:308] drr: pd_op_multiply matched.
I0228 19:41:15.989813 34354 ap_lower_fusion_op_pass.cc:2434] drr: cinn_op_yield_store matched.
I0228 19:41:15.989820 34354 ap_lower_fusion_op_pass.cc:308] drr: cinn_op_yield_store matched.
I0228 19:41:15.989869 34354 ap_lower_fusion_op_pass.cc:2413] drr: down_spider_load_from_global mismatched.
I0228 19:41:15.989945 34354 ap_lower_fusion_op_pass.cc:2434] drr: down_spider_relu matched.
I0228 19:41:15.989951 34354 ap_lower_fusion_op_pass.cc:308] drr: down_spider_relu matched.
I0228 19:41:15.990080 34354 ap_lower_fusion_op_pass.cc:2434] drr: cinn_broadcast_up_spider matched.
I0228 19:41:15.990087 34354 ap_lower_fusion_op_pass.cc:308] drr: cinn_broadcast_up_spider matched.
I0228 19:41:15.990216 34354 ap_lower_fusion_op_pass.cc:2413] drr: pd_op_left_full_add mismatched.
I0228 19:41:15.990309 34354 ap_lower_fusion_op_pass.cc:2434] drr: pd_op_right_full_add matched.
I0228 19:41:15.990316 34354 ap_lower_fusion_op_pass.cc:308] drr: pd_op_right_full_add matched.
I0228 19:41:15.990375 34354 ap_lower_fusion_op_pass.cc:2413] drr: down_spider_relu mismatched.
I0228 19:41:15.990397 34354 ap_lower_fusion_op_pass.cc:2413] drr: down_spider_relu mismatched.
I0228 19:41:15.990414 34354 ap_lower_fusion_op_pass.cc:2413] drr: pd_op_left_full_add mismatched.
I0228 19:41:15.990489 34354 ap_lower_fusion_op_pass.cc:2434] drr: pd_op_right_full_add matched.
I0228 19:41:15.990495 34354 ap_lower_fusion_op_pass.cc:308] drr: pd_op_right_full_add matched.
I0228 19:41:15.990552 34354 ap_lower_fusion_op_pass.cc:2413] drr: down_spider_add mismatched.
I0228 19:41:15.990576 34354 ap_lower_fusion_op_pass.cc:2413] drr: down_spider_relu mismatched.
I0228 19:41:15.990598 34354 ap_lower_fusion_op_pass.cc:2413] drr: down_spider_load_from_global mismatched.
I0228 19:41:15.990620 34354 ap_lower_fusion_op_pass.cc:2413] drr: cinn_broadcast_up_spider mismatched.
I0228 19:41:15.990640 34354 ap_lower_fusion_op_pass.cc:2413] drr: expand_up_spider mismatched.
I0228 19:41:15.990661 34354 ap_lower_fusion_op_pass.cc:2413] drr: left_down_spider_up_spider mismatched.
I0228 19:41:15.990680 34354 ap_lower_fusion_op_pass.cc:2413] drr: right_down_spider_up_spider mismatched.
I0228 19:41:15.990700 34354 ap_lower_fusion_op_pass.cc:2413] drr: triangle_left_down_spider_up_spider mismatched.
I0228 19:41:15.990774 34354 ap_lower_fusion_op_pass.cc:2434] drr: down_spider_relu matched.
I0228 19:41:15.990780 34354 ap_lower_fusion_op_pass.cc:308] drr: down_spider_relu matched.
I0228 19:41:15.990878 34354 ap_lower_fusion_op_pass.cc:2434] drr: down_spider_relu matched.
I0228 19:41:15.990885 34354 ap_lower_fusion_op_pass.cc:308] drr: down_spider_relu matched.
I0228 19:41:15.990980 34354 ap_lower_fusion_op_pass.cc:2434] drr: down_spider_relu matched.
I0228 19:41:15.990986 34354 ap_lower_fusion_op_pass.cc:308] drr: down_spider_relu matched.
I0228 19:41:15.991082 34354 ap_lower_fusion_op_pass.cc:2434] drr: down_spider_relu matched.
I0228 19:41:15.991088 34354 ap_lower_fusion_op_pass.cc:308] drr: down_spider_relu matched.
I0228 19:41:15.991194 34354 ap_lower_fusion_op_pass.cc:2434] drr: down_spider_add matched.
I0228 19:41:15.991200 34354 ap_lower_fusion_op_pass.cc:308] drr: down_spider_add matched.
I0228 19:41:15.991317 34354 ap_lower_fusion_op_pass.cc:2434] drr: down_spider_relu matched.
I0228 19:41:15.991324 34354 ap_lower_fusion_op_pass.cc:308] drr: down_spider_relu matched.
I0228 19:41:15.991372 34354 ap_lower_fusion_op_pass.cc:2413] drr: down_spider_load_from_global mismatched.
I0228 19:41:15.991396 34354 ap_lower_fusion_op_pass.cc:2413] drr: cinn_broadcast_up_spider mismatched.
I0228 19:41:15.991417 34354 ap_lower_fusion_op_pass.cc:2413] drr: expand_up_spider mismatched.
I0228 19:41:15.991437 34354 ap_lower_fusion_op_pass.cc:2413] drr: left_down_spider_up_spider mismatched.
I0228 19:41:15.991461 34354 ap_lower_fusion_op_pass.cc:2413] drr: right_down_spider_up_spider mismatched.
I0228 19:41:15.991560 34354 ap_lower_fusion_op_pass.cc:2434] drr: triangle_left_down_spider_up_spider matched.
I0228 19:41:15.991565 34354 ap_lower_fusion_op_pass.cc:308] drr: triangle_left_down_spider_up_spider matched.
I0228 19:41:15.991601 34354 ap_lower_fusion_op_pass.cc:2413] drr: cinn_broadcast_up_spider mismatched.
I0228 19:41:15.991622 34354 ap_lower_fusion_op_pass.cc:2413] drr: expand_up_spider mismatched.
I0228 19:41:15.991642 34354 ap_lower_fusion_op_pass.cc:2413] drr: left_down_spider_up_spider mismatched.
I0228 19:41:15.991662 34354 ap_lower_fusion_op_pass.cc:2413] drr: right_down_spider_up_spider mismatched.
I0228 19:41:15.991679 34354 ap_lower_fusion_op_pass.cc:2413] drr: triangle_left_down_spider_up_spider mismatched.
I0228 19:41:15.991703 34354 ap_lower_fusion_op_pass.cc:2413] drr: down_spider_load_from_global mismatched.
I0228 19:41:15.991721 34354 ap_lower_fusion_op_pass.cc:2413] drr: cinn_broadcast_up_spider mismatched.
I0228 19:41:15.991741 34354 ap_lower_fusion_op_pass.cc:2413] drr: expand_up_spider mismatched.
I0228 19:41:15.991758 34354 ap_lower_fusion_op_pass.cc:2413] drr: left_down_spider_up_spider mismatched.
I0228 19:41:15.991776 34354 ap_lower_fusion_op_pass.cc:2413] drr: right_down_spider_up_spider mismatched.
I0228 19:41:15.991794 34354 ap_lower_fusion_op_pass.cc:2413] drr: triangle_left_down_spider_up_spider mismatched.
I0228 19:41:15.993057 34354 ap_lower_fusion_op_pass.cc:2413] drr: tmp_access_drr_pass_1 mismatched.
I0228 19:41:15.993221 34354 ap_lower_fusion_op_pass.cc:2434] drr: tmp_access_drr_pass_1 matched.
I0228 19:41:15.993229 34354 ap_lower_fusion_op_pass.cc:308] drr: tmp_access_drr_pass_1 matched.
I0228 19:41:15.993942 34354 ap_lower_fusion_op_pass.cc:2434] drr: tmp_access_drr_pass_1 matched.
I0228 19:41:15.993955 34354 ap_lower_fusion_op_pass.cc:308] drr: tmp_access_drr_pass_1 matched.
E0228 19:41:15.994087 34354 builtin_functions.cc:121] Print
index_func_unique_id2index_program:
 OrderedDict([[input2, {
    (%0) = "pd_op.data" () {dtype:float32,name:"mm_out",place:Place(undefined:0),shape:[4,9216,768],stop_gradient:[true]} : () -> tensor<4x9216x768xf32>
    (%1) = "pd_op.full_int_array" () {dtype:int64,place:Place(cpu),stop_gradient:[true],value:[0,1]} : () -> tensor<2xi64>
    (%2) = "pd_op.sum" (%0, %1) {dtype:Undefined,keepdim:false,stop_gradient:[true]} : (tensor<4x9216x768xf32>, tensor<2xi64>) -> tensor<768xf32>
    () = "cf.yield" (%2) {} : (tensor<768xf32>) -> 
}
]])
I0228 19:41:15.994598 34354 ap_lower_fusion_op_pass.cc:2434] drr: tmp_access_drr_pass_1 matched.
I0228 19:41:15.994611 34354 ap_lower_fusion_op_pass.cc:308] drr: tmp_access_drr_pass_1 matched.
I0228 19:41:15.995397 34354 ap_lower_fusion_op_pass.cc:2413] drr: tmp_access_drr_pass_1 mismatched.
I0228 19:41:15.995478 34354 ap_lower_fusion_op_pass.cc:2434] drr: tmp_access_drr_pass_1 matched.
I0228 19:41:15.995484 34354 ap_lower_fusion_op_pass.cc:308] drr: tmp_access_drr_pass_1 matched.
I0228 19:41:15.996169 34354 ap_lower_fusion_op_pass.cc:2434] drr: tmp_access_drr_pass_1 matched.
I0228 19:41:15.996181 34354 ap_lower_fusion_op_pass.cc:308] drr: tmp_access_drr_pass_1 matched.
E0228 19:41:15.996317 34354 builtin_functions.cc:121] Print
mut_program: {
    (%0) = "pd_op.data" () {dtype:float32,name:"input2",place:Place(undefined:0),shape:[768],stop_gradient:[true]} : () -> tensor<768xf32>
    (%1) = "ap_op.load_from_global" (%0) {index_func_unique_id:"input2"} : (tensor<768xf32>) -> tensor<768xf32>
    (%2) = "ap_op.load_from_register" () {name:"mm_out",register_var_name:"x",symbolic_shape_or_data:,type:tensor<4x9216x768xf32>} : () -> tensor<4x9216x768xf32>
    (%3) = "cinn_op.broadcast" (%1) {broadcast_axes:[2],out_shape:[4,9216,768],stop_gradient:[true]} : (tensor<768xf32>) -> tensor<4x9216x768xf32>
    (%4) = "pd_op.add" (%2, %3) {stop_gradient:[true]} : (tensor<4x9216x768xf32>, tensor<4x9216x768xf32>) -> tensor<4x9216x768xf32>
    (%5) = "cinn_op.yield_store" (%4) {} : (tensor<4x9216x768xf32>) -> tensor<4x9216x768xf32>
    () = "ap_op.store_to_register" (%5) {name:"output",register_var_name:"out"} : (tensor<4x9216x768xf32>) -> 
}
E0228 19:41:15.997061 34354 builtin_functions.cc:121] Print
-- kargs_name_pair_list: [[<InTensorDataPtrKernelArgId object at 0x532039e0>, input0], [<InTensorDataPtrKernelArgId object at 0x5321c100>, input1], [<OutTensorDataPtrKernelArgId object at 0x53210460>, output], [4, input0_dim0], [9216, input0_dim1], [192, input0_dim2], [192, input1_dim0], [768, input1_dim1]]
E0228 19:41:15.999516 34354 builtin_functions.cc:121] Print
-- matmul_binary_epilogue_code:
 float op1_out0 = (args.in_ptr_0[(coord.column)]);
    float op4_out0 = (x + op1_out0);
    out = op4_out0;
E0228 19:41:15.999531 34354 builtin_functions.cc:121] Print
----begin making project
E0228 19:41:16.000244 34354 builtin_functions.cc:121] Print
----end making project
E0228 19:41:16.001506 34354 builtin_functions.cc:121] Print
....begin copy program
E0228 19:41:16.001598 34354 ap_lower_fusion_op_pass.cc:2279] 
Traceback (most recent call last):
  File "/work/Paddle/paddle/ap/src/paddle/pass/ap_lower_fusion_op_pass.cc", line 2294, in operator()
    GetMatchCtx(op)
  File "/work/Paddle/paddle/ap/src/paddle/pass/ap_lower_fusion_op_pass.cc", line 1792, in operator()
    ConstraintApplier{}.Match(ctx_.drr_ctx, opt_graph_match_ctx.value())
  File "/work/Paddle/paddle/ap/src/paddle/pass/ap_lower_fusion_op_pass.cc", line 1622, in operator()
    ap_drr_helper.Interpret(constraint_func, args)
  File "/work/Paddle/paddle/ap/include/axpr/cps_interpreter.h", line 69, in operator()
    InterpretComposedCallUntilHalt(&composed_call)
  File "/work/Paddle/paddle/ap/include/axpr/cps_interpreter.h", line 101, in operator()
    InterpretComposedCall(composed_call)
  File "/work/Paddle/paddle/ap/include/axpr/cps_interpreter.h", line 568, in operator()
    func(obj, composed_call->args)
  File "/work/Paddle/paddle/ap/src/paddle/pass/ir_helper_method_class.cc", line 270, in operator()
    InitIrMapping(NameGetter, pir::GetUsedExternalValue(*block), &ir_mapping, new_program->block())
  File "/work/Paddle/paddle/ap/src/paddle/pass/ir_helper_method_class.cc", line 305, in operator()
    NameGetter(free_value)
  File "/work/Paddle/paddle/ap/src/paddle/pass/ir_helper_method_class.cc", line 140, in operator()
    iter != map.end()

ValueError: Check 'iter != map.end()' failed.
pass_name: matmul_binary_fusion
E0228 19:41:16.002149 34354 ap_lower_fusion_op_pass.cc:2279] 
Traceback (most recent call last):
  File "/work/Paddle/paddle/ap/src/paddle/pass/ap_lower_fusion_op_pass.cc", line 2294, in operator()
    GetMatchCtx(op)
  File "/work/Paddle/paddle/ap/src/paddle/pass/ap_lower_fusion_op_pass.cc", line 1792, in operator()
    ConstraintApplier{}.Match(ctx_.drr_ctx, opt_graph_match_ctx.value())
  File "/work/Paddle/paddle/ap/src/paddle/pass/ap_lower_fusion_op_pass.cc", line 1622, in operator()
    ap_drr_helper.Interpret(constraint_func, args)
  File "/work/Paddle/paddle/ap/include/axpr/cps_interpreter.h", line 69, in operator()
    InterpretComposedCallUntilHalt(&composed_call)
  File "/work/Paddle/paddle/ap/include/axpr/cps_interpreter.h", line 101, in operator()
    InterpretComposedCall(composed_call)
  File "/work/Paddle/paddle/ap/include/axpr/cps_interpreter.h", line 568, in operator()
    func(obj, composed_call->args)
  File "/work/Paddle/paddle/ap/src/paddle/pass/ir_helper_method_class.cc", line 270, in operator()
    InitIrMapping(NameGetter, pir::GetUsedExternalValue(*block), &ir_mapping, new_program->block())
  File "/work/Paddle/paddle/ap/src/paddle/pass/ir_helper_method_class.cc", line 305, in operator()
    NameGetter(free_value)
  File "/work/Paddle/paddle/ap/src/paddle/pass/ir_helper_method_class.cc", line 140, in operator()
    iter != map.end()

ValueError: Check 'iter != map.end()' failed.
pass_name: matmul_trinary_fusion
E0228 19:41:16.002429 34354 builtin_functions.cc:121] Print
....begin copy program
E0228 19:41:16.003338 34354 builtin_functions.cc:121] Print
....exit copy program
E0228 19:41:16.003422 34354 builtin_functions.cc:121] Print
before-access_topo_pass {
    (%0) = "pd_op.data" () {dtype:float32,name:"input2",place:Place(undefined:0),shape:[768],stop_gradient:[true]} : () -> tensor<768xf32>
    (%1) = "pd_op.data" () {dtype:float32,name:"mm_out",place:Place(undefined:0),shape:[4,9216,768],stop_gradient:[true]} : () -> tensor<4x9216x768xf32>
    (%2) = "cinn_op.broadcast" (%0) {broadcast_axes:[2],out_shape:[4,9216,768],stop_gradient:[true]} : (tensor<768xf32>) -> tensor<4x9216x768xf32>
    (%3) = "pd_op.add" (%1, %2) {stop_gradient:[true]} : (tensor<4x9216x768xf32>, tensor<4x9216x768xf32>) -> tensor<4x9216x768xf32>
    (%4) = "cinn_op.yield_store" (%3) {} : (tensor<4x9216x768xf32>) -> tensor<4x9216x768xf32>
    (%5) = "pd_op.full" () {dtype:float32,place:Place(undefined:0),shape:[4,9216,768],stop_gradient:[true],value:0.707107} : () -> tensor<4x9216x768xf32>
    (%6) = "pd_op.multiply" (%3, %5) {stop_gradient:[true]} : (tensor<4x9216x768xf32>, tensor<4x9216x768xf32>) -> tensor<4x9216x768xf32>
    (%7) = "pd_op.erf" (%6) {stop_gradient:[true]} : (tensor<4x9216x768xf32>) -> tensor<4x9216x768xf32>
    (%8) = "pd_op.full" () {dtype:float32,place:Place(undefined:0),shape:[4,9216,768],stop_gradient:[true],value:1} : () -> tensor<4x9216x768xf32>
    (%9) = "pd_op.add" (%8, %7) {stop_gradient:[true]} : (tensor<4x9216x768xf32>, tensor<4x9216x768xf32>) -> tensor<4x9216x768xf32>
    (%10) = "pd_op.full" () {dtype:float32,place:Place(undefined:0),shape:[4,9216,768],stop_gradient:[true],value:0.5} : () -> tensor<4x9216x768xf32>
    (%11) = "pd_op.multiply" (%3, %10) {stop_gradient:[true]} : (tensor<4x9216x768xf32>, tensor<4x9216x768xf32>) -> tensor<4x9216x768xf32>
    (%12) = "pd_op.multiply" (%11, %9) {stop_gradient:[true]} : (tensor<4x9216x768xf32>, tensor<4x9216x768xf32>) -> tensor<4x9216x768xf32>
    (%13) = "cinn_op.yield_store" (%12) {} : (tensor<4x9216x768xf32>) -> tensor<4x9216x768xf32>
    () = "cf.yield" (%4, %13) {} : (tensor<4x9216x768xf32>, tensor<4x9216x768xf32>) -> 
}
I0228 19:41:16.004525 34354 ap_lower_fusion_op_pass.cc:2434] drr: tmp_access_drr_pass_1 matched.
I0228 19:41:16.004539 34354 ap_lower_fusion_op_pass.cc:308] drr: tmp_access_drr_pass_1 matched.
I0228 19:41:16.004685 34354 ap_lower_fusion_op_pass.cc:2434] drr: tmp_access_drr_pass_1 matched.
I0228 19:41:16.004693 34354 ap_lower_fusion_op_pass.cc:308] drr: tmp_access_drr_pass_1 matched.
E0228 19:41:16.004947 34354 builtin_functions.cc:121] Print
after-init-access_topo_pass {
    (%0) = "pd_op.data" () {dtype:float32,name:"input2",place:Place(undefined:0),shape:[768],stop_gradient:[true]} : () -> tensor<768xf32>
    (%1) = "pd_op.data" () {dtype:float32,name:"mm_out",place:Place(undefined:0),shape:[4,9216,768],stop_gradient:[true]} : () -> tensor<4x9216x768xf32>
    (%2) = "ap_op.down_spider" (%1) {} : (tensor<4x9216x768xf32>) -> tensor<4x9216x768xf32>
    (%3) = "cinn_op.broadcast" (%0) {broadcast_axes:[2],out_shape:[4,9216,768],stop_gradient:[true]} : (tensor<768xf32>) -> tensor<4x9216x768xf32>
    (%4) = "pd_op.add" (%2, %3) {stop_gradient:[true]} : (tensor<4x9216x768xf32>, tensor<4x9216x768xf32>) -> tensor<4x9216x768xf32>
    (%5) = "cinn_op.yield_store" (%4) {} : (tensor<4x9216x768xf32>) -> tensor<4x9216x768xf32>
    (%6) = "pd_op.full" () {dtype:float32,place:Place(undefined:0),shape:[4,9216,768],stop_gradient:[true],value:0.707107} : () -> tensor<4x9216x768xf32>
    (%7) = "pd_op.multiply" (%4, %6) {stop_gradient:[true]} : (tensor<4x9216x768xf32>, tensor<4x9216x768xf32>) -> tensor<4x9216x768xf32>
    (%8) = "pd_op.erf" (%7) {stop_gradient:[true]} : (tensor<4x9216x768xf32>) -> tensor<4x9216x768xf32>
    (%9) = "pd_op.full" () {dtype:float32,place:Place(undefined:0),shape:[4,9216,768],stop_gradient:[true],value:1} : () -> tensor<4x9216x768xf32>
    (%10) = "pd_op.add" (%9, %8) {stop_gradient:[true]} : (tensor<4x9216x768xf32>, tensor<4x9216x768xf32>) -> tensor<4x9216x768xf32>
    (%11) = "pd_op.full" () {dtype:float32,place:Place(undefined:0),shape:[4,9216,768],stop_gradient:[true],value:0.5} : () -> tensor<4x9216x768xf32>
    (%12) = "pd_op.multiply" (%4, %11) {stop_gradient:[true]} : (tensor<4x9216x768xf32>, tensor<4x9216x768xf32>) -> tensor<4x9216x768xf32>
    (%13) = "pd_op.multiply" (%12, %10) {stop_gradient:[true]} : (tensor<4x9216x768xf32>, tensor<4x9216x768xf32>) -> tensor<4x9216x768xf32>
    (%14) = "cinn_op.yield_store" (%13) {} : (tensor<4x9216x768xf32>) -> tensor<4x9216x768xf32>
    (%15) = "pd_op.data" () {dtype:float32,name:"output",place:Place(undefined:0),shape:[4,9216,768],stop_gradient:[true]} : () -> tensor<4x9216x768xf32>
    () = "ap_op.up_spider" (%5, %15) {} : (tensor<4x9216x768xf32>, tensor<4x9216x768xf32>) -> 
}
I0228 19:41:16.011860 34354 ap_lower_fusion_op_pass.cc:2434] drr: down_spider_add matched.
I0228 19:41:16.011874 34354 ap_lower_fusion_op_pass.cc:308] drr: down_spider_add matched.
I0228 19:41:16.011974 34354 ap_lower_fusion_op_pass.cc:2434] drr: cinn_op_yield_store matched.
I0228 19:41:16.011981 34354 ap_lower_fusion_op_pass.cc:308] drr: cinn_op_yield_store matched.
I0228 19:41:16.012032 34354 ap_lower_fusion_op_pass.cc:2413] drr: pd_op_left_full_add mismatched.
I0228 19:41:16.012051 34354 ap_lower_fusion_op_pass.cc:2413] drr: pd_op_right_full_add mismatched.
I0228 19:41:16.012115 34354 ap_lower_fusion_op_pass.cc:2434] drr: pd_op_multiply matched.
I0228 19:41:16.012120 34354 ap_lower_fusion_op_pass.cc:308] drr: pd_op_multiply matched.
I0228 19:41:16.012204 34354 ap_lower_fusion_op_pass.cc:2434] drr: pd_op_erf matched.
I0228 19:41:16.012212 34354 ap_lower_fusion_op_pass.cc:308] drr: pd_op_erf matched.
I0228 19:41:16.012320 34354 ap_lower_fusion_op_pass.cc:2434] drr: pd_op_left_full_add matched.
I0228 19:41:16.012327 34354 ap_lower_fusion_op_pass.cc:308] drr: pd_op_left_full_add matched.
I0228 19:41:16.012375 34354 ap_lower_fusion_op_pass.cc:2413] drr: pd_op_left_full_add mismatched.
I0228 19:41:16.012394 34354 ap_lower_fusion_op_pass.cc:2413] drr: pd_op_right_full_add mismatched.
I0228 19:41:16.012459 34354 ap_lower_fusion_op_pass.cc:2434] drr: pd_op_multiply matched.
I0228 19:41:16.012465 34354 ap_lower_fusion_op_pass.cc:308] drr: pd_op_multiply matched.
I0228 19:41:16.012555 34354 ap_lower_fusion_op_pass.cc:2434] drr: pd_op_multiply matched.
I0228 19:41:16.012562 34354 ap_lower_fusion_op_pass.cc:308] drr: pd_op_multiply matched.
I0228 19:41:16.012641 34354 ap_lower_fusion_op_pass.cc:2434] drr: cinn_op_yield_store matched.
I0228 19:41:16.012647 34354 ap_lower_fusion_op_pass.cc:308] drr: cinn_op_yield_store matched.
I0228 19:41:16.012694 34354 ap_lower_fusion_op_pass.cc:2413] drr: cinn_broadcast_up_spider mismatched.
I0228 19:41:16.012717 34354 ap_lower_fusion_op_pass.cc:2413] drr: expand_up_spider mismatched.
I0228 19:41:16.012738 34354 ap_lower_fusion_op_pass.cc:2413] drr: left_down_spider_up_spider mismatched.
I0228 19:41:16.012758 34354 ap_lower_fusion_op_pass.cc:2413] drr: right_down_spider_up_spider mismatched.
I0228 19:41:16.012776 34354 ap_lower_fusion_op_pass.cc:2413] drr: triangle_left_down_spider_up_spider mismatched.
I0228 19:41:16.012856 34354 ap_lower_fusion_op_pass.cc:2434] drr: down_spider_relu matched.
I0228 19:41:16.012861 34354 ap_lower_fusion_op_pass.cc:308] drr: down_spider_relu matched.
I0228 19:41:16.013011 34354 ap_lower_fusion_op_pass.cc:2434] drr: cinn_broadcast_up_spider matched.
I0228 19:41:16.013018 34354 ap_lower_fusion_op_pass.cc:308] drr: cinn_broadcast_up_spider matched.
I0228 19:41:16.013150 34354 ap_lower_fusion_op_pass.cc:2413] drr: pd_op_left_full_add mismatched.
I0228 19:41:16.013235 34354 ap_lower_fusion_op_pass.cc:2434] drr: pd_op_right_full_add matched.
I0228 19:41:16.013240 34354 ap_lower_fusion_op_pass.cc:308] drr: pd_op_right_full_add matched.
I0228 19:41:16.013316 34354 ap_lower_fusion_op_pass.cc:2413] drr: down_spider_relu mismatched.
I0228 19:41:16.013342 34354 ap_lower_fusion_op_pass.cc:2413] drr: down_spider_relu mismatched.
I0228 19:41:16.013358 34354 ap_lower_fusion_op_pass.cc:2413] drr: pd_op_left_full_add mismatched.
I0228 19:41:16.013434 34354 ap_lower_fusion_op_pass.cc:2434] drr: pd_op_right_full_add matched.
I0228 19:41:16.013439 34354 ap_lower_fusion_op_pass.cc:308] drr: pd_op_right_full_add matched.
I0228 19:41:16.013499 34354 ap_lower_fusion_op_pass.cc:2413] drr: down_spider_add mismatched.
I0228 19:41:16.013521 34354 ap_lower_fusion_op_pass.cc:2413] drr: down_spider_relu mismatched.
I0228 19:41:16.013542 34354 ap_lower_fusion_op_pass.cc:2413] drr: cinn_broadcast_up_spider mismatched.
I0228 19:41:16.013563 34354 ap_lower_fusion_op_pass.cc:2413] drr: expand_up_spider mismatched.
I0228 19:41:16.013638 34354 ap_lower_fusion_op_pass.cc:2434] drr: left_down_spider_up_spider matched.
I0228 19:41:16.013643 34354 ap_lower_fusion_op_pass.cc:308] drr: left_down_spider_up_spider matched.
I0228 19:41:16.013692 34354 ap_lower_fusion_op_pass.cc:2413] drr: cinn_broadcast_up_spider mismatched.
I0228 19:41:16.013715 34354 ap_lower_fusion_op_pass.cc:2413] drr: expand_up_spider mismatched.
I0228 19:41:16.013733 34354 ap_lower_fusion_op_pass.cc:2413] drr: left_down_spider_up_spider mismatched.
I0228 19:41:16.013753 34354 ap_lower_fusion_op_pass.cc:2413] drr: right_down_spider_up_spider mismatched.
I0228 19:41:16.013772 34354 ap_lower_fusion_op_pass.cc:2413] drr: triangle_left_down_spider_up_spider mismatched.
I0228 19:41:16.013844 34354 ap_lower_fusion_op_pass.cc:2434] drr: down_spider_relu matched.
I0228 19:41:16.013849 34354 ap_lower_fusion_op_pass.cc:308] drr: down_spider_relu matched.
I0228 19:41:16.013947 34354 ap_lower_fusion_op_pass.cc:2434] drr: down_spider_relu matched.
I0228 19:41:16.013952 34354 ap_lower_fusion_op_pass.cc:308] drr: down_spider_relu matched.
I0228 19:41:16.014048 34354 ap_lower_fusion_op_pass.cc:2434] drr: down_spider_relu matched.
I0228 19:41:16.014055 34354 ap_lower_fusion_op_pass.cc:308] drr: down_spider_relu matched.
I0228 19:41:16.014149 34354 ap_lower_fusion_op_pass.cc:2434] drr: down_spider_relu matched.
I0228 19:41:16.014155 34354 ap_lower_fusion_op_pass.cc:308] drr: down_spider_relu matched.
I0228 19:41:16.014261 34354 ap_lower_fusion_op_pass.cc:2434] drr: down_spider_add matched.
I0228 19:41:16.014267 34354 ap_lower_fusion_op_pass.cc:308] drr: down_spider_add matched.
I0228 19:41:16.014382 34354 ap_lower_fusion_op_pass.cc:2434] drr: down_spider_relu matched.
I0228 19:41:16.014389 34354 ap_lower_fusion_op_pass.cc:308] drr: down_spider_relu matched.
I0228 19:41:16.014436 34354 ap_lower_fusion_op_pass.cc:2413] drr: cinn_broadcast_up_spider mismatched.
I0228 19:41:16.014457 34354 ap_lower_fusion_op_pass.cc:2413] drr: expand_up_spider mismatched.
I0228 19:41:16.014478 34354 ap_lower_fusion_op_pass.cc:2413] drr: left_down_spider_up_spider mismatched.
I0228 19:41:16.014497 34354 ap_lower_fusion_op_pass.cc:2413] drr: right_down_spider_up_spider mismatched.
I0228 19:41:16.014523 34354 ap_lower_fusion_op_pass.cc:2413] drr: triangle_left_down_spider_up_spider mismatched.
I0228 19:41:16.014545 34354 ap_lower_fusion_op_pass.cc:2413] drr: cinn_broadcast_up_spider mismatched.
I0228 19:41:16.014564 34354 ap_lower_fusion_op_pass.cc:2413] drr: expand_up_spider mismatched.
I0228 19:41:16.014583 34354 ap_lower_fusion_op_pass.cc:2413] drr: left_down_spider_up_spider mismatched.
I0228 19:41:16.014607 34354 ap_lower_fusion_op_pass.cc:2413] drr: right_down_spider_up_spider mismatched.
I0228 19:41:16.014703 34354 ap_lower_fusion_op_pass.cc:2434] drr: triangle_left_down_spider_up_spider matched.
I0228 19:41:16.014709 34354 ap_lower_fusion_op_pass.cc:308] drr: triangle_left_down_spider_up_spider matched.
I0228 19:41:16.014742 34354 ap_lower_fusion_op_pass.cc:2413] drr: cinn_broadcast_up_spider mismatched.
I0228 19:41:16.014763 34354 ap_lower_fusion_op_pass.cc:2413] drr: expand_up_spider mismatched.
I0228 19:41:16.014782 34354 ap_lower_fusion_op_pass.cc:2413] drr: left_down_spider_up_spider mismatched.
I0228 19:41:16.014801 34354 ap_lower_fusion_op_pass.cc:2413] drr: right_down_spider_up_spider mismatched.
I0228 19:41:16.014819 34354 ap_lower_fusion_op_pass.cc:2413] drr: triangle_left_down_spider_up_spider mismatched.
I0228 19:41:16.014838 34354 ap_lower_fusion_op_pass.cc:2413] drr: cinn_broadcast_up_spider mismatched.
I0228 19:41:16.014858 34354 ap_lower_fusion_op_pass.cc:2413] drr: expand_up_spider mismatched.
I0228 19:41:16.014876 34354 ap_lower_fusion_op_pass.cc:2413] drr: left_down_spider_up_spider mismatched.
I0228 19:41:16.014895 34354 ap_lower_fusion_op_pass.cc:2413] drr: right_down_spider_up_spider mismatched.
I0228 19:41:16.014920 34354 ap_lower_fusion_op_pass.cc:2413] drr: triangle_left_down_spider_up_spider mismatched.
I0228 19:41:16.014941 34354 ap_lower_fusion_op_pass.cc:2413] drr: cinn_broadcast_up_spider mismatched.
I0228 19:41:16.014961 34354 ap_lower_fusion_op_pass.cc:2413] drr: expand_up_spider mismatched.
I0228 19:41:16.014979 34354 ap_lower_fusion_op_pass.cc:2413] drr: left_down_spider_up_spider mismatched.
I0228 19:41:16.014998 34354 ap_lower_fusion_op_pass.cc:2413] drr: right_down_spider_up_spider mismatched.
I0228 19:41:16.015017 34354 ap_lower_fusion_op_pass.cc:2413] drr: triangle_left_down_spider_up_spider mismatched.
I0228 19:41:16.015038 34354 ap_lower_fusion_op_pass.cc:2413] drr: cinn_broadcast_up_spider mismatched.
I0228 19:41:16.015056 34354 ap_lower_fusion_op_pass.cc:2413] drr: expand_up_spider mismatched.
I0228 19:41:16.015075 34354 ap_lower_fusion_op_pass.cc:2413] drr: left_down_spider_up_spider mismatched.
I0228 19:41:16.015091 34354 ap_lower_fusion_op_pass.cc:2413] drr: right_down_spider_up_spider mismatched.
I0228 19:41:16.015113 34354 ap_lower_fusion_op_pass.cc:2413] drr: triangle_left_down_spider_up_spider mismatched.
E0228 19:41:16.015188 34354 builtin_functions.cc:121] Print
after-apply-access_topo_pass {
    (%0) = "pd_op.data" () {dtype:float32,name:"input2",place:Place(undefined:0),shape:[768],stop_gradient:[true]} : () -> tensor<768xf32>
    (%1) = "pd_op.data" () {dtype:float32,name:"mm_out",place:Place(undefined:0),shape:[4,9216,768],stop_gradient:[true]} : () -> tensor<4x9216x768xf32>
    (%2) = "pd_op.full_int_array" () {dtype:int64,place:Place(cpu),stop_gradient:[true],value:[0,1]} : () -> tensor<2xi64>
    (%3) = "pd_op.sum" (%1, %2) {dtype:Undefined,keepdim:false,stop_gradient:[true]} : (tensor<4x9216x768xf32>, tensor<2xi64>) -> tensor<768xf32>
    () = "ap_op.up_spider" (%3, %0) {} : (tensor<768xf32>, tensor<768xf32>) -> 
    (%4) = "pd_op.data" () {dtype:float32,name:"output",place:Place(undefined:0),shape:[4,9216,768],stop_gradient:[true]} : () -> tensor<4x9216x768xf32>
    () = "ap_op.up_spider" (%1, %4) {} : (tensor<4x9216x768xf32>, tensor<4x9216x768xf32>) -> 
}
E0228 19:41:16.015291 34354 builtin_functions.cc:121] Print
after-remove-data-op-pair-pass {
    (%0) = "pd_op.data" () {dtype:float32,name:"input2",place:Place(undefined:0),shape:[768],stop_gradient:[true]} : () -> tensor<768xf32>
    (%1) = "pd_op.data" () {dtype:float32,name:"mm_out",place:Place(undefined:0),shape:[4,9216,768],stop_gradient:[true]} : () -> tensor<4x9216x768xf32>
    (%2) = "pd_op.full_int_array" () {dtype:int64,place:Place(cpu),stop_gradient:[true],value:[0,1]} : () -> tensor<2xi64>
    (%3) = "pd_op.sum" (%1, %2) {dtype:Undefined,keepdim:false,stop_gradient:[true]} : (tensor<4x9216x768xf32>, tensor<2xi64>) -> tensor<768xf32>
    () = "ap_op.up_spider" (%3, %0) {} : (tensor<768xf32>, tensor<768xf32>) -> 
    (%4) = "pd_op.data" () {dtype:float32,name:"output",place:Place(undefined:0),shape:[4,9216,768],stop_gradient:[true]} : () -> tensor<4x9216x768xf32>
    () = "ap_op.up_spider" (%1, %4) {} : (tensor<4x9216x768xf32>, tensor<4x9216x768xf32>) -> 
}
I0228 19:41:16.016208 34354 ap_lower_fusion_op_pass.cc:2413] drr: tmp_access_drr_pass_1 mismatched.
I0228 19:41:16.016232 34354 ap_lower_fusion_op_pass.cc:2413] drr: tmp_access_drr_pass_1 mismatched.
I0228 19:41:16.016472 34354 ap_lower_fusion_op_pass.cc:2434] drr: tmp_access_drr_pass_1 matched.
I0228 19:41:16.016480 34354 ap_lower_fusion_op_pass.cc:308] drr: tmp_access_drr_pass_1 matched.
E0228 19:41:16.016548 34354 builtin_functions.cc:121] Print
after-remove_data_op2sum_op2data_op_pass {
    (%0) = "pd_op.data" () {dtype:float32,name:"mm_out",place:Place(undefined:0),shape:[4,9216,768],stop_gradient:[true]} : () -> tensor<4x9216x768xf32>
    (%1) = "pd_op.data" () {dtype:float32,name:"output",place:Place(undefined:0),shape:[4,9216,768],stop_gradient:[true]} : () -> tensor<4x9216x768xf32>
    () = "ap_op.up_spider" (%0, %1) {} : (tensor<4x9216x768xf32>, tensor<4x9216x768xf32>) -> 
}
I0228 19:41:16.017427 34354 ap_lower_fusion_op_pass.cc:2413] drr: tmp_access_drr_pass_2 mismatched.
I0228 19:41:16.017549 34354 ap_lower_fusion_op_pass.cc:2413] drr: tmp_access_drr_pass_2 mismatched.
I0228 19:41:16.017558 34354 ap_lower_fusion_op_pass.cc:2413] drr: tmp_access_drr_pass_2 mismatched.
I0228 19:41:16.017578 34354 ap_lower_fusion_op_pass.cc:2413] drr: tmp_access_drr_pass_1 mismatched.
I0228 19:41:16.017674 34354 ap_lower_fusion_op_pass.cc:2434] drr: tmp_access_drr_pass_1 matched.
I0228 19:41:16.017680 34354 ap_lower_fusion_op_pass.cc:308] drr: tmp_access_drr_pass_1 matched.
E0228 19:41:16.017716 34354 builtin_functions.cc:121] Print
after-remove-input-output-access_topo_pass {
}
I0228 19:41:16.017941 34354 ap_lower_fusion_op_pass.cc:2299] drr: matmul_binary_fusion matched.
I0228 19:41:16.017947 34354 ap_lower_fusion_op_pass.cc:308] drr: matmul_binary_fusion matched.
I0228 19:41:16.020087 34354 ap_lower_fusion_op_pass.cc:2434] drr: tmp_access_drr_pass_1 matched.
I0228 19:41:16.020100 34354 ap_lower_fusion_op_pass.cc:308] drr: tmp_access_drr_pass_1 matched.
I0228 19:41:16.020258 34354 ap_lower_fusion_op_pass.cc:2434] drr: tmp_access_drr_pass_1 matched.
I0228 19:41:16.020267 34354 ap_lower_fusion_op_pass.cc:308] drr: tmp_access_drr_pass_1 matched.
I0228 19:41:16.021042 34354 ap_lower_fusion_op_pass.cc:2434] drr: tmp_access_drr_pass_1 matched.
I0228 19:41:16.021055 34354 ap_lower_fusion_op_pass.cc:308] drr: tmp_access_drr_pass_1 matched.
I0228 19:41:16.022001 34354 ap_lower_fusion_op_pass.cc:2434] drr: tmp_access_drr_pass_1 matched.
I0228 19:41:16.022014 34354 ap_lower_fusion_op_pass.cc:308] drr: tmp_access_drr_pass_1 matched.
I0228 19:41:16.029138 34354 ap_lower_fusion_op_pass.cc:2413] drr: down_spider_load_from_global mismatched.
I0228 19:41:16.029229 34354 ap_lower_fusion_op_pass.cc:2434] drr: down_spider_load_from_global matched.
I0228 19:41:16.029237 34354 ap_lower_fusion_op_pass.cc:308] drr: down_spider_load_from_global matched.
I0228 19:41:16.029366 34354 ap_lower_fusion_op_pass.cc:2434] drr: down_spider_add matched.
I0228 19:41:16.029372 34354 ap_lower_fusion_op_pass.cc:308] drr: down_spider_add matched.
I0228 19:41:16.029461 34354 ap_lower_fusion_op_pass.cc:2434] drr: cinn_op_yield_store matched.
I0228 19:41:16.029467 34354 ap_lower_fusion_op_pass.cc:308] drr: cinn_op_yield_store matched.
I0228 19:41:16.029518 34354 ap_lower_fusion_op_pass.cc:2413] drr: pd_op_left_full_add mismatched.
I0228 19:41:16.029538 34354 ap_lower_fusion_op_pass.cc:2413] drr: pd_op_right_full_add mismatched.
I0228 19:41:16.029601 34354 ap_lower_fusion_op_pass.cc:2434] drr: pd_op_multiply matched.
I0228 19:41:16.029606 34354 ap_lower_fusion_op_pass.cc:308] drr: pd_op_multiply matched.
I0228 19:41:16.029692 34354 ap_lower_fusion_op_pass.cc:2434] drr: pd_op_erf matched.
I0228 19:41:16.029698 34354 ap_lower_fusion_op_pass.cc:308] drr: pd_op_erf matched.
I0228 19:41:16.029799 34354 ap_lower_fusion_op_pass.cc:2434] drr: pd_op_left_full_add matched.
I0228 19:41:16.029805 34354 ap_lower_fusion_op_pass.cc:308] drr: pd_op_left_full_add matched.
I0228 19:41:16.029852 34354 ap_lower_fusion_op_pass.cc:2413] drr: pd_op_left_full_add mismatched.
I0228 19:41:16.029871 34354 ap_lower_fusion_op_pass.cc:2413] drr: pd_op_right_full_add mismatched.
I0228 19:41:16.029934 34354 ap_lower_fusion_op_pass.cc:2434] drr: pd_op_multiply matched.
I0228 19:41:16.029939 34354 ap_lower_fusion_op_pass.cc:308] drr: pd_op_multiply matched.
I0228 19:41:16.030031 34354 ap_lower_fusion_op_pass.cc:2434] drr: pd_op_multiply matched.
I0228 19:41:16.030037 34354 ap_lower_fusion_op_pass.cc:308] drr: pd_op_multiply matched.
I0228 19:41:16.030117 34354 ap_lower_fusion_op_pass.cc:2434] drr: cinn_op_yield_store matched.
I0228 19:41:16.030123 34354 ap_lower_fusion_op_pass.cc:308] drr: cinn_op_yield_store matched.
I0228 19:41:16.030174 34354 ap_lower_fusion_op_pass.cc:2413] drr: down_spider_load_from_global mismatched.
I0228 19:41:16.030251 34354 ap_lower_fusion_op_pass.cc:2434] drr: down_spider_relu matched.
I0228 19:41:16.030256 34354 ap_lower_fusion_op_pass.cc:308] drr: down_spider_relu matched.
I0228 19:41:16.030401 34354 ap_lower_fusion_op_pass.cc:2434] drr: cinn_broadcast_up_spider matched.
I0228 19:41:16.030409 34354 ap_lower_fusion_op_pass.cc:308] drr: cinn_broadcast_up_spider matched.
I0228 19:41:16.030541 34354 ap_lower_fusion_op_pass.cc:2413] drr: pd_op_left_full_add mismatched.
I0228 19:41:16.030623 34354 ap_lower_fusion_op_pass.cc:2434] drr: pd_op_right_full_add matched.
I0228 19:41:16.030628 34354 ap_lower_fusion_op_pass.cc:308] drr: pd_op_right_full_add matched.
I0228 19:41:16.030686 34354 ap_lower_fusion_op_pass.cc:2413] drr: down_spider_relu mismatched.
I0228 19:41:16.030709 34354 ap_lower_fusion_op_pass.cc:2413] drr: down_spider_relu mismatched.
I0228 19:41:16.030725 34354 ap_lower_fusion_op_pass.cc:2413] drr: pd_op_left_full_add mismatched.
I0228 19:41:16.030797 34354 ap_lower_fusion_op_pass.cc:2434] drr: pd_op_right_full_add matched.
I0228 19:41:16.030803 34354 ap_lower_fusion_op_pass.cc:308] drr: pd_op_right_full_add matched.
I0228 19:41:16.030862 34354 ap_lower_fusion_op_pass.cc:2413] drr: down_spider_add mismatched.
I0228 19:41:16.030884 34354 ap_lower_fusion_op_pass.cc:2413] drr: down_spider_relu mismatched.
I0228 19:41:16.030907 34354 ap_lower_fusion_op_pass.cc:2413] drr: down_spider_load_from_global mismatched.
I0228 19:41:16.030929 34354 ap_lower_fusion_op_pass.cc:2413] drr: cinn_broadcast_up_spider mismatched.
I0228 19:41:16.030949 34354 ap_lower_fusion_op_pass.cc:2413] drr: expand_up_spider mismatched.
I0228 19:41:16.030969 34354 ap_lower_fusion_op_pass.cc:2413] drr: left_down_spider_up_spider mismatched.
I0228 19:41:16.030989 34354 ap_lower_fusion_op_pass.cc:2413] drr: right_down_spider_up_spider mismatched.
I0228 19:41:16.031008 34354 ap_lower_fusion_op_pass.cc:2413] drr: triangle_left_down_spider_up_spider mismatched.
I0228 19:41:16.031083 34354 ap_lower_fusion_op_pass.cc:2434] drr: down_spider_relu matched.
I0228 19:41:16.031090 34354 ap_lower_fusion_op_pass.cc:308] drr: down_spider_relu matched.
I0228 19:41:16.031188 34354 ap_lower_fusion_op_pass.cc:2434] drr: down_spider_relu matched.
I0228 19:41:16.031194 34354 ap_lower_fusion_op_pass.cc:308] drr: down_spider_relu matched.
I0228 19:41:16.031301 34354 ap_lower_fusion_op_pass.cc:2434] drr: down_spider_relu matched.
I0228 19:41:16.031308 34354 ap_lower_fusion_op_pass.cc:308] drr: down_spider_relu matched.
I0228 19:41:16.031404 34354 ap_lower_fusion_op_pass.cc:2434] drr: down_spider_relu matched.
I0228 19:41:16.031410 34354 ap_lower_fusion_op_pass.cc:308] drr: down_spider_relu matched.
I0228 19:41:16.031517 34354 ap_lower_fusion_op_pass.cc:2434] drr: down_spider_add matched.
I0228 19:41:16.031522 34354 ap_lower_fusion_op_pass.cc:308] drr: down_spider_add matched.
I0228 19:41:16.031630 34354 ap_lower_fusion_op_pass.cc:2434] drr: down_spider_relu matched.
I0228 19:41:16.031635 34354 ap_lower_fusion_op_pass.cc:308] drr: down_spider_relu matched.
I0228 19:41:16.031682 34354 ap_lower_fusion_op_pass.cc:2413] drr: down_spider_load_from_global mismatched.
I0228 19:41:16.031705 34354 ap_lower_fusion_op_pass.cc:2413] drr: cinn_broadcast_up_spider mismatched.
I0228 19:41:16.031726 34354 ap_lower_fusion_op_pass.cc:2413] drr: expand_up_spider mismatched.
I0228 19:41:16.031746 34354 ap_lower_fusion_op_pass.cc:2413] drr: left_down_spider_up_spider mismatched.
I0228 19:41:16.031770 34354 ap_lower_fusion_op_pass.cc:2413] drr: right_down_spider_up_spider mismatched.
I0228 19:41:16.031868 34354 ap_lower_fusion_op_pass.cc:2434] drr: triangle_left_down_spider_up_spider matched.
I0228 19:41:16.031874 34354 ap_lower_fusion_op_pass.cc:308] drr: triangle_left_down_spider_up_spider matched.
I0228 19:41:16.031909 34354 ap_lower_fusion_op_pass.cc:2413] drr: cinn_broadcast_up_spider mismatched.
I0228 19:41:16.031930 34354 ap_lower_fusion_op_pass.cc:2413] drr: expand_up_spider mismatched.
I0228 19:41:16.031949 34354 ap_lower_fusion_op_pass.cc:2413] drr: left_down_spider_up_spider mismatched.
I0228 19:41:16.031968 34354 ap_lower_fusion_op_pass.cc:2413] drr: right_down_spider_up_spider mismatched.
I0228 19:41:16.031986 34354 ap_lower_fusion_op_pass.cc:2413] drr: triangle_left_down_spider_up_spider mismatched.
I0228 19:41:16.032008 34354 ap_lower_fusion_op_pass.cc:2413] drr: down_spider_load_from_global mismatched.
I0228 19:41:16.032029 34354 ap_lower_fusion_op_pass.cc:2413] drr: cinn_broadcast_up_spider mismatched.
I0228 19:41:16.032048 34354 ap_lower_fusion_op_pass.cc:2413] drr: expand_up_spider mismatched.
I0228 19:41:16.032068 34354 ap_lower_fusion_op_pass.cc:2413] drr: left_down_spider_up_spider mismatched.
I0228 19:41:16.032085 34354 ap_lower_fusion_op_pass.cc:2413] drr: right_down_spider_up_spider mismatched.
I0228 19:41:16.032104 34354 ap_lower_fusion_op_pass.cc:2413] drr: triangle_left_down_spider_up_spider mismatched.
I0228 19:41:16.033454 34354 ap_lower_fusion_op_pass.cc:2413] drr: tmp_access_drr_pass_1 mismatched.
I0228 19:41:16.033615 34354 ap_lower_fusion_op_pass.cc:2434] drr: tmp_access_drr_pass_1 matched.
I0228 19:41:16.033623 34354 ap_lower_fusion_op_pass.cc:308] drr: tmp_access_drr_pass_1 matched.
I0228 19:41:16.034334 34354 ap_lower_fusion_op_pass.cc:2434] drr: tmp_access_drr_pass_1 matched.
I0228 19:41:16.034348 34354 ap_lower_fusion_op_pass.cc:308] drr: tmp_access_drr_pass_1 matched.
E0228 19:41:16.034478 34354 builtin_functions.cc:121] Print
index_func_unique_id2index_program:
 OrderedDict([[input2, {
    (%0) = "pd_op.data" () {dtype:float32,name:"mm_out",place:Place(undefined:0),shape:[4,9216,768],stop_gradient:[true]} : () -> tensor<4x9216x768xf32>
    (%1) = "pd_op.full_int_array" () {dtype:int64,place:Place(cpu),stop_gradient:[true],value:[0,1]} : () -> tensor<2xi64>
    (%2) = "pd_op.sum" (%0, %1) {dtype:Undefined,keepdim:false,stop_gradient:[true]} : (tensor<4x9216x768xf32>, tensor<2xi64>) -> tensor<768xf32>
    () = "cf.yield" (%2) {} : (tensor<768xf32>) -> 
}
]])
I0228 19:41:16.034974 34354 ap_lower_fusion_op_pass.cc:2434] drr: tmp_access_drr_pass_1 matched.
I0228 19:41:16.034986 34354 ap_lower_fusion_op_pass.cc:308] drr: tmp_access_drr_pass_1 matched.
I0228 19:41:16.035768 34354 ap_lower_fusion_op_pass.cc:2413] drr: tmp_access_drr_pass_1 mismatched.
I0228 19:41:16.035849 34354 ap_lower_fusion_op_pass.cc:2434] drr: tmp_access_drr_pass_1 matched.
I0228 19:41:16.035856 34354 ap_lower_fusion_op_pass.cc:308] drr: tmp_access_drr_pass_1 matched.
I0228 19:41:16.036554 34354 ap_lower_fusion_op_pass.cc:2434] drr: tmp_access_drr_pass_1 matched.
I0228 19:41:16.036567 34354 ap_lower_fusion_op_pass.cc:308] drr: tmp_access_drr_pass_1 matched.
E0228 19:41:16.036691 34354 builtin_functions.cc:121] Print
mut_program: {
    (%0) = "pd_op.data" () {dtype:float32,name:"input2",place:Place(undefined:0),shape:[768],stop_gradient:[true]} : () -> tensor<768xf32>
    (%1) = "ap_op.load_from_global" (%0) {index_func_unique_id:"input2"} : (tensor<768xf32>) -> tensor<768xf32>
    (%2) = "ap_op.load_from_register" () {name:"mm_out",register_var_name:"x",symbolic_shape_or_data:,type:tensor<4x9216x768xf32>} : () -> tensor<4x9216x768xf32>
    (%3) = "cinn_op.broadcast" (%1) {broadcast_axes:[2],out_shape:[4,9216,768],stop_gradient:[true]} : (tensor<768xf32>) -> tensor<4x9216x768xf32>
    (%4) = "pd_op.add" (%2, %3) {stop_gradient:[true]} : (tensor<4x9216x768xf32>, tensor<4x9216x768xf32>) -> tensor<4x9216x768xf32>
    (%5) = "cinn_op.yield_store" (%4) {} : (tensor<4x9216x768xf32>) -> tensor<4x9216x768xf32>
    () = "ap_op.store_to_register" (%5) {name:"output",register_var_name:"out"} : (tensor<4x9216x768xf32>) -> 
}
E0228 19:41:16.037444 34354 builtin_functions.cc:121] Print
-- kargs_name_pair_list: [[<InTensorDataPtrKernelArgId object at 0x533a5fb0>, input0], [<InTensorDataPtrKernelArgId object at 0x5335c400>, input1], [<OutTensorDataPtrKernelArgId object at 0x53375be0>, output], [4, input0_dim0], [9216, input0_dim1], [192, input0_dim2], [192, input1_dim0], [768, input1_dim1]]
E0228 19:41:16.040007 34354 builtin_functions.cc:121] Print
-- matmul_binary_epilogue_code:
 float op1_out0 = (args.in_ptr_0[(coord.column)]);
    float op4_out0 = (x + op1_out0);
    out = op4_out0;
E0228 19:41:16.040023 34354 builtin_functions.cc:121] Print
----begin making project
E0228 19:41:16.040757 34354 builtin_functions.cc:121] Print
----end making project
E0228 19:41:16.041988 34354 builtin_functions.cc:121] Print
....begin copy program
E0228 19:41:16.042078 34354 ap_lower_fusion_op_pass.cc:2279] 
Traceback (most recent call last):
  File "/work/Paddle/paddle/ap/src/paddle/pass/ap_lower_fusion_op_pass.cc", line 2294, in operator()
    GetMatchCtx(op)
  File "/work/Paddle/paddle/ap/src/paddle/pass/ap_lower_fusion_op_pass.cc", line 1792, in operator()
    ConstraintApplier{}.Match(ctx_.drr_ctx, opt_graph_match_ctx.value())
  File "/work/Paddle/paddle/ap/src/paddle/pass/ap_lower_fusion_op_pass.cc", line 1622, in operator()
    ap_drr_helper.Interpret(constraint_func, args)
  File "/work/Paddle/paddle/ap/include/axpr/cps_interpreter.h", line 69, in operator()
    InterpretComposedCallUntilHalt(&composed_call)
  File "/work/Paddle/paddle/ap/include/axpr/cps_interpreter.h", line 101, in operator()
    InterpretComposedCall(composed_call)
  File "/work/Paddle/paddle/ap/include/axpr/cps_interpreter.h", line 568, in operator()
    func(obj, composed_call->args)
  File "/work/Paddle/paddle/ap/src/paddle/pass/ir_helper_method_class.cc", line 270, in operator()
    InitIrMapping(NameGetter, pir::GetUsedExternalValue(*block), &ir_mapping, new_program->block())
  File "/work/Paddle/paddle/ap/src/paddle/pass/ir_helper_method_class.cc", line 305, in operator()
    NameGetter(free_value)
  File "/work/Paddle/paddle/ap/src/paddle/pass/ir_helper_method_class.cc", line 140, in operator()
    iter != map.end()

ValueError: Check 'iter != map.end()' failed.
pass_name: matmul_binary_fusion
E0228 19:41:16.042639 34354 ap_lower_fusion_op_pass.cc:2279] 
Traceback (most recent call last):
  File "/work/Paddle/paddle/ap/src/paddle/pass/ap_lower_fusion_op_pass.cc", line 2294, in operator()
    GetMatchCtx(op)
  File "/work/Paddle/paddle/ap/src/paddle/pass/ap_lower_fusion_op_pass.cc", line 1792, in operator()
    ConstraintApplier{}.Match(ctx_.drr_ctx, opt_graph_match_ctx.value())
  File "/work/Paddle/paddle/ap/src/paddle/pass/ap_lower_fusion_op_pass.cc", line 1622, in operator()
    ap_drr_helper.Interpret(constraint_func, args)
  File "/work/Paddle/paddle/ap/include/axpr/cps_interpreter.h", line 69, in operator()
    InterpretComposedCallUntilHalt(&composed_call)
  File "/work/Paddle/paddle/ap/include/axpr/cps_interpreter.h", line 101, in operator()
    InterpretComposedCall(composed_call)
  File "/work/Paddle/paddle/ap/include/axpr/cps_interpreter.h", line 568, in operator()
    func(obj, composed_call->args)
  File "/work/Paddle/paddle/ap/src/paddle/pass/ir_helper_method_class.cc", line 270, in operator()
    InitIrMapping(NameGetter, pir::GetUsedExternalValue(*block), &ir_mapping, new_program->block())
  File "/work/Paddle/paddle/ap/src/paddle/pass/ir_helper_method_class.cc", line 305, in operator()
    NameGetter(free_value)
  File "/work/Paddle/paddle/ap/src/paddle/pass/ir_helper_method_class.cc", line 140, in operator()
    iter != map.end()

ValueError: Check 'iter != map.end()' failed.
pass_name: matmul_trinary_fusion
E0228 19:41:16.042906 34354 builtin_functions.cc:121] Print
....begin copy program
E0228 19:41:16.043820 34354 builtin_functions.cc:121] Print
....exit copy program
E0228 19:41:16.043903 34354 builtin_functions.cc:121] Print
before-access_topo_pass {
    (%0) = "pd_op.data" () {dtype:float32,name:"input2",place:Place(undefined:0),shape:[768],stop_gradient:[true]} : () -> tensor<768xf32>
    (%1) = "pd_op.data" () {dtype:float32,name:"mm_out",place:Place(undefined:0),shape:[4,9216,768],stop_gradient:[true]} : () -> tensor<4x9216x768xf32>
    (%2) = "cinn_op.broadcast" (%0) {broadcast_axes:[2],out_shape:[4,9216,768],stop_gradient:[true]} : (tensor<768xf32>) -> tensor<4x9216x768xf32>
    (%3) = "pd_op.add" (%1, %2) {stop_gradient:[true]} : (tensor<4x9216x768xf32>, tensor<4x9216x768xf32>) -> tensor<4x9216x768xf32>
    (%4) = "cinn_op.yield_store" (%3) {} : (tensor<4x9216x768xf32>) -> tensor<4x9216x768xf32>
    (%5) = "pd_op.full" () {dtype:float32,place:Place(undefined:0),shape:[4,9216,768],stop_gradient:[true],value:0.707107} : () -> tensor<4x9216x768xf32>
    (%6) = "pd_op.multiply" (%3, %5) {stop_gradient:[true]} : (tensor<4x9216x768xf32>, tensor<4x9216x768xf32>) -> tensor<4x9216x768xf32>
    (%7) = "pd_op.erf" (%6) {stop_gradient:[true]} : (tensor<4x9216x768xf32>) -> tensor<4x9216x768xf32>
    (%8) = "pd_op.full" () {dtype:float32,place:Place(undefined:0),shape:[4,9216,768],stop_gradient:[true],value:1} : () -> tensor<4x9216x768xf32>
    (%9) = "pd_op.add" (%8, %7) {stop_gradient:[true]} : (tensor<4x9216x768xf32>, tensor<4x9216x768xf32>) -> tensor<4x9216x768xf32>
    (%10) = "pd_op.full" () {dtype:float32,place:Place(undefined:0),shape:[4,9216,768],stop_gradient:[true],value:0.5} : () -> tensor<4x9216x768xf32>
    (%11) = "pd_op.multiply" (%3, %10) {stop_gradient:[true]} : (tensor<4x9216x768xf32>, tensor<4x9216x768xf32>) -> tensor<4x9216x768xf32>
    (%12) = "pd_op.multiply" (%11, %9) {stop_gradient:[true]} : (tensor<4x9216x768xf32>, tensor<4x9216x768xf32>) -> tensor<4x9216x768xf32>
    (%13) = "cinn_op.yield_store" (%12) {} : (tensor<4x9216x768xf32>) -> tensor<4x9216x768xf32>
    () = "cf.yield" (%4, %13) {} : (tensor<4x9216x768xf32>, tensor<4x9216x768xf32>) -> 
}
I0228 19:41:16.045009 34354 ap_lower_fusion_op_pass.cc:2434] drr: tmp_access_drr_pass_1 matched.
I0228 19:41:16.045023 34354 ap_lower_fusion_op_pass.cc:308] drr: tmp_access_drr_pass_1 matched.
I0228 19:41:16.045169 34354 ap_lower_fusion_op_pass.cc:2434] drr: tmp_access_drr_pass_1 matched.
I0228 19:41:16.045177 34354 ap_lower_fusion_op_pass.cc:308] drr: tmp_access_drr_pass_1 matched.
E0228 19:41:16.045444 34354 builtin_functions.cc:121] Print
after-init-access_topo_pass {
    (%0) = "pd_op.data" () {dtype:float32,name:"input2",place:Place(undefined:0),shape:[768],stop_gradient:[true]} : () -> tensor<768xf32>
    (%1) = "pd_op.data" () {dtype:float32,name:"mm_out",place:Place(undefined:0),shape:[4,9216,768],stop_gradient:[true]} : () -> tensor<4x9216x768xf32>
    (%2) = "ap_op.down_spider" (%1) {} : (tensor<4x9216x768xf32>) -> tensor<4x9216x768xf32>
    (%3) = "cinn_op.broadcast" (%0) {broadcast_axes:[2],out_shape:[4,9216,768],stop_gradient:[true]} : (tensor<768xf32>) -> tensor<4x9216x768xf32>
    (%4) = "pd_op.add" (%2, %3) {stop_gradient:[true]} : (tensor<4x9216x768xf32>, tensor<4x9216x768xf32>) -> tensor<4x9216x768xf32>
    (%5) = "cinn_op.yield_store" (%4) {} : (tensor<4x9216x768xf32>) -> tensor<4x9216x768xf32>
    (%6) = "pd_op.full" () {dtype:float32,place:Place(undefined:0),shape:[4,9216,768],stop_gradient:[true],value:0.707107} : () -> tensor<4x9216x768xf32>
    (%7) = "pd_op.multiply" (%4, %6) {stop_gradient:[true]} : (tensor<4x9216x768xf32>, tensor<4x9216x768xf32>) -> tensor<4x9216x768xf32>
    (%8) = "pd_op.erf" (%7) {stop_gradient:[true]} : (tensor<4x9216x768xf32>) -> tensor<4x9216x768xf32>
    (%9) = "pd_op.full" () {dtype:float32,place:Place(undefined:0),shape:[4,9216,768],stop_gradient:[true],value:1} : () -> tensor<4x9216x768xf32>
    (%10) = "pd_op.add" (%9, %8) {stop_gradient:[true]} : (tensor<4x9216x768xf32>, tensor<4x9216x768xf32>) -> tensor<4x9216x768xf32>
    (%11) = "pd_op.full" () {dtype:float32,place:Place(undefined:0),shape:[4,9216,768],stop_gradient:[true],value:0.5} : () -> tensor<4x9216x768xf32>
    (%12) = "pd_op.multiply" (%4, %11) {stop_gradient:[true]} : (tensor<4x9216x768xf32>, tensor<4x9216x768xf32>) -> tensor<4x9216x768xf32>
    (%13) = "pd_op.multiply" (%12, %10) {stop_gradient:[true]} : (tensor<4x9216x768xf32>, tensor<4x9216x768xf32>) -> tensor<4x9216x768xf32>
    (%14) = "cinn_op.yield_store" (%13) {} : (tensor<4x9216x768xf32>) -> tensor<4x9216x768xf32>
    (%15) = "pd_op.data" () {dtype:float32,name:"output",place:Place(undefined:0),shape:[4,9216,768],stop_gradient:[true]} : () -> tensor<4x9216x768xf32>
    () = "ap_op.up_spider" (%5, %15) {} : (tensor<4x9216x768xf32>, tensor<4x9216x768xf32>) -> 
}
I0228 19:41:16.052431 34354 ap_lower_fusion_op_pass.cc:2434] drr: down_spider_add matched.
I0228 19:41:16.052444 34354 ap_lower_fusion_op_pass.cc:308] drr: down_spider_add matched.
I0228 19:41:16.052544 34354 ap_lower_fusion_op_pass.cc:2434] drr: cinn_op_yield_store matched.
I0228 19:41:16.052551 34354 ap_lower_fusion_op_pass.cc:308] drr: cinn_op_yield_store matched.
I0228 19:41:16.052603 34354 ap_lower_fusion_op_pass.cc:2413] drr: pd_op_left_full_add mismatched.
I0228 19:41:16.052623 34354 ap_lower_fusion_op_pass.cc:2413] drr: pd_op_right_full_add mismatched.
I0228 19:41:16.052686 34354 ap_lower_fusion_op_pass.cc:2434] drr: pd_op_multiply matched.
I0228 19:41:16.052691 34354 ap_lower_fusion_op_pass.cc:308] drr: pd_op_multiply matched.
I0228 19:41:16.052776 34354 ap_lower_fusion_op_pass.cc:2434] drr: pd_op_erf matched.
I0228 19:41:16.052783 34354 ap_lower_fusion_op_pass.cc:308] drr: pd_op_erf matched.
I0228 19:41:16.052882 34354 ap_lower_fusion_op_pass.cc:2434] drr: pd_op_left_full_add matched.
I0228 19:41:16.052888 34354 ap_lower_fusion_op_pass.cc:308] drr: pd_op_left_full_add matched.
I0228 19:41:16.052935 34354 ap_lower_fusion_op_pass.cc:2413] drr: pd_op_left_full_add mismatched.
I0228 19:41:16.052954 34354 ap_lower_fusion_op_pass.cc:2413] drr: pd_op_right_full_add mismatched.
I0228 19:41:16.053018 34354 ap_lower_fusion_op_pass.cc:2434] drr: pd_op_multiply matched.
I0228 19:41:16.053023 34354 ap_lower_fusion_op_pass.cc:308] drr: pd_op_multiply matched.
I0228 19:41:16.053114 34354 ap_lower_fusion_op_pass.cc:2434] drr: pd_op_multiply matched.
I0228 19:41:16.053120 34354 ap_lower_fusion_op_pass.cc:308] drr: pd_op_multiply matched.
I0228 19:41:16.053200 34354 ap_lower_fusion_op_pass.cc:2434] drr: cinn_op_yield_store matched.
I0228 19:41:16.053205 34354 ap_lower_fusion_op_pass.cc:308] drr: cinn_op_yield_store matched.
I0228 19:41:16.053253 34354 ap_lower_fusion_op_pass.cc:2413] drr: cinn_broadcast_up_spider mismatched.
I0228 19:41:16.053277 34354 ap_lower_fusion_op_pass.cc:2413] drr: expand_up_spider mismatched.
I0228 19:41:16.053309 34354 ap_lower_fusion_op_pass.cc:2413] drr: left_down_spider_up_spider mismatched.
I0228 19:41:16.053326 34354 ap_lower_fusion_op_pass.cc:2413] drr: right_down_spider_up_spider mismatched.
I0228 19:41:16.053345 34354 ap_lower_fusion_op_pass.cc:2413] drr: triangle_left_down_spider_up_spider mismatched.
I0228 19:41:16.053424 34354 ap_lower_fusion_op_pass.cc:2434] drr: down_spider_relu matched.
I0228 19:41:16.053429 34354 ap_lower_fusion_op_pass.cc:308] drr: down_spider_relu matched.
I0228 19:41:16.053579 34354 ap_lower_fusion_op_pass.cc:2434] drr: cinn_broadcast_up_spider matched.
I0228 19:41:16.053587 34354 ap_lower_fusion_op_pass.cc:308] drr: cinn_broadcast_up_spider matched.
I0228 19:41:16.053719 34354 ap_lower_fusion_op_pass.cc:2413] drr: pd_op_left_full_add mismatched.
I0228 19:41:16.053803 34354 ap_lower_fusion_op_pass.cc:2434] drr: pd_op_right_full_add matched.
I0228 19:41:16.053809 34354 ap_lower_fusion_op_pass.cc:308] drr: pd_op_right_full_add matched.
I0228 19:41:16.053869 34354 ap_lower_fusion_op_pass.cc:2413] drr: down_spider_relu mismatched.
I0228 19:41:16.053890 34354 ap_lower_fusion_op_pass.cc:2413] drr: down_spider_relu mismatched.
I0228 19:41:16.053906 34354 ap_lower_fusion_op_pass.cc:2413] drr: pd_op_left_full_add mismatched.
I0228 19:41:16.053979 34354 ap_lower_fusion_op_pass.cc:2434] drr: pd_op_right_full_add matched.
I0228 19:41:16.053984 34354 ap_lower_fusion_op_pass.cc:308] drr: pd_op_right_full_add matched.
I0228 19:41:16.054042 34354 ap_lower_fusion_op_pass.cc:2413] drr: down_spider_add mismatched.
I0228 19:41:16.054065 34354 ap_lower_fusion_op_pass.cc:2413] drr: down_spider_relu mismatched.
I0228 19:41:16.054086 34354 ap_lower_fusion_op_pass.cc:2413] drr: cinn_broadcast_up_spider mismatched.
I0228 19:41:16.054108 34354 ap_lower_fusion_op_pass.cc:2413] drr: expand_up_spider mismatched.
I0228 19:41:16.054183 34354 ap_lower_fusion_op_pass.cc:2434] drr: left_down_spider_up_spider matched.
I0228 19:41:16.054188 34354 ap_lower_fusion_op_pass.cc:308] drr: left_down_spider_up_spider matched.
I0228 19:41:16.054237 34354 ap_lower_fusion_op_pass.cc:2413] drr: cinn_broadcast_up_spider mismatched.
I0228 19:41:16.054260 34354 ap_lower_fusion_op_pass.cc:2413] drr: expand_up_spider mismatched.
I0228 19:41:16.054286 34354 ap_lower_fusion_op_pass.cc:2413] drr: left_down_spider_up_spider mismatched.
I0228 19:41:16.054311 34354 ap_lower_fusion_op_pass.cc:2413] drr: right_down_spider_up_spider mismatched.
I0228 19:41:16.054330 34354 ap_lower_fusion_op_pass.cc:2413] drr: triangle_left_down_spider_up_spider mismatched.
I0228 19:41:16.054406 34354 ap_lower_fusion_op_pass.cc:2434] drr: down_spider_relu matched.
I0228 19:41:16.054411 34354 ap_lower_fusion_op_pass.cc:308] drr: down_spider_relu matched.
I0228 19:41:16.054509 34354 ap_lower_fusion_op_pass.cc:2434] drr: down_spider_relu matched.
I0228 19:41:16.054517 34354 ap_lower_fusion_op_pass.cc:308] drr: down_spider_relu matched.
I0228 19:41:16.054611 34354 ap_lower_fusion_op_pass.cc:2434] drr: down_spider_relu matched.
I0228 19:41:16.054617 34354 ap_lower_fusion_op_pass.cc:308] drr: down_spider_relu matched.
I0228 19:41:16.054713 34354 ap_lower_fusion_op_pass.cc:2434] drr: down_spider_relu matched.
I0228 19:41:16.054719 34354 ap_lower_fusion_op_pass.cc:308] drr: down_spider_relu matched.
I0228 19:41:16.054826 34354 ap_lower_fusion_op_pass.cc:2434] drr: down_spider_add matched.
I0228 19:41:16.054832 34354 ap_lower_fusion_op_pass.cc:308] drr: down_spider_add matched.
I0228 19:41:16.054939 34354 ap_lower_fusion_op_pass.cc:2434] drr: down_spider_relu matched.
I0228 19:41:16.054944 34354 ap_lower_fusion_op_pass.cc:308] drr: down_spider_relu matched.
I0228 19:41:16.054991 34354 ap_lower_fusion_op_pass.cc:2413] drr: cinn_broadcast_up_spider mismatched.
I0228 19:41:16.055013 34354 ap_lower_fusion_op_pass.cc:2413] drr: expand_up_spider mismatched.
I0228 19:41:16.055033 34354 ap_lower_fusion_op_pass.cc:2413] drr: left_down_spider_up_spider mismatched.
I0228 19:41:16.055052 34354 ap_lower_fusion_op_pass.cc:2413] drr: right_down_spider_up_spider mismatched.
I0228 19:41:16.055078 34354 ap_lower_fusion_op_pass.cc:2413] drr: triangle_left_down_spider_up_spider mismatched.
I0228 19:41:16.055100 34354 ap_lower_fusion_op_pass.cc:2413] drr: cinn_broadcast_up_spider mismatched.
I0228 19:41:16.055120 34354 ap_lower_fusion_op_pass.cc:2413] drr: expand_up_spider mismatched.
I0228 19:41:16.055140 34354 ap_lower_fusion_op_pass.cc:2413] drr: left_down_spider_up_spider mismatched.
I0228 19:41:16.055163 34354 ap_lower_fusion_op_pass.cc:2413] drr: right_down_spider_up_spider mismatched.
I0228 19:41:16.055259 34354 ap_lower_fusion_op_pass.cc:2434] drr: triangle_left_down_spider_up_spider matched.
I0228 19:41:16.055265 34354 ap_lower_fusion_op_pass.cc:308] drr: triangle_left_down_spider_up_spider matched.
I0228 19:41:16.055306 34354 ap_lower_fusion_op_pass.cc:2413] drr: cinn_broadcast_up_spider mismatched.
I0228 19:41:16.055328 34354 ap_lower_fusion_op_pass.cc:2413] drr: expand_up_spider mismatched.
I0228 19:41:16.055348 34354 ap_lower_fusion_op_pass.cc:2413] drr: left_down_spider_up_spider mismatched.
I0228 19:41:16.055367 34354 ap_lower_fusion_op_pass.cc:2413] drr: right_down_spider_up_spider mismatched.
I0228 19:41:16.055385 34354 ap_lower_fusion_op_pass.cc:2413] drr: triangle_left_down_spider_up_spider mismatched.
I0228 19:41:16.055404 34354 ap_lower_fusion_op_pass.cc:2413] drr: cinn_broadcast_up_spider mismatched.
I0228 19:41:16.055424 34354 ap_lower_fusion_op_pass.cc:2413] drr: expand_up_spider mismatched.
I0228 19:41:16.055444 34354 ap_lower_fusion_op_pass.cc:2413] drr: left_down_spider_up_spider mismatched.
I0228 19:41:16.055462 34354 ap_lower_fusion_op_pass.cc:2413] drr: right_down_spider_up_spider mismatched.
I0228 19:41:16.055487 34354 ap_lower_fusion_op_pass.cc:2413] drr: triangle_left_down_spider_up_spider mismatched.
I0228 19:41:16.055507 34354 ap_lower_fusion_op_pass.cc:2413] drr: cinn_broadcast_up_spider mismatched.
I0228 19:41:16.055527 34354 ap_lower_fusion_op_pass.cc:2413] drr: expand_up_spider mismatched.
I0228 19:41:16.055545 34354 ap_lower_fusion_op_pass.cc:2413] drr: left_down_spider_up_spider mismatched.
I0228 19:41:16.055564 34354 ap_lower_fusion_op_pass.cc:2413] drr: right_down_spider_up_spider mismatched.
I0228 19:41:16.055581 34354 ap_lower_fusion_op_pass.cc:2413] drr: triangle_left_down_spider_up_spider mismatched.
I0228 19:41:16.055603 34354 ap_lower_fusion_op_pass.cc:2413] drr: cinn_broadcast_up_spider mismatched.
I0228 19:41:16.055621 34354 ap_lower_fusion_op_pass.cc:2413] drr: expand_up_spider mismatched.
I0228 19:41:16.055639 34354 ap_lower_fusion_op_pass.cc:2413] drr: left_down_spider_up_spider mismatched.
I0228 19:41:16.055658 34354 ap_lower_fusion_op_pass.cc:2413] drr: right_down_spider_up_spider mismatched.
I0228 19:41:16.055681 34354 ap_lower_fusion_op_pass.cc:2413] drr: triangle_left_down_spider_up_spider mismatched.
E0228 19:41:16.055755 34354 builtin_functions.cc:121] Print
after-apply-access_topo_pass {
    (%0) = "pd_op.data" () {dtype:float32,name:"input2",place:Place(undefined:0),shape:[768],stop_gradient:[true]} : () -> tensor<768xf32>
    (%1) = "pd_op.data" () {dtype:float32,name:"mm_out",place:Place(undefined:0),shape:[4,9216,768],stop_gradient:[true]} : () -> tensor<4x9216x768xf32>
    (%2) = "pd_op.full_int_array" () {dtype:int64,place:Place(cpu),stop_gradient:[true],value:[0,1]} : () -> tensor<2xi64>
    (%3) = "pd_op.sum" (%1, %2) {dtype:Undefined,keepdim:false,stop_gradient:[true]} : (tensor<4x9216x768xf32>, tensor<2xi64>) -> tensor<768xf32>
    () = "ap_op.up_spider" (%3, %0) {} : (tensor<768xf32>, tensor<768xf32>) -> 
    (%4) = "pd_op.data" () {dtype:float32,name:"output",place:Place(undefined:0),shape:[4,9216,768],stop_gradient:[true]} : () -> tensor<4x9216x768xf32>
    () = "ap_op.up_spider" (%1, %4) {} : (tensor<4x9216x768xf32>, tensor<4x9216x768xf32>) -> 
}
E0228 19:41:16.055850 34354 builtin_functions.cc:121] Print
after-remove-data-op-pair-pass {
    (%0) = "pd_op.data" () {dtype:float32,name:"input2",place:Place(undefined:0),shape:[768],stop_gradient:[true]} : () -> tensor<768xf32>
    (%1) = "pd_op.data" () {dtype:float32,name:"mm_out",place:Place(undefined:0),shape:[4,9216,768],stop_gradient:[true]} : () -> tensor<4x9216x768xf32>
    (%2) = "pd_op.full_int_array" () {dtype:int64,place:Place(cpu),stop_gradient:[true],value:[0,1]} : () -> tensor<2xi64>
    (%3) = "pd_op.sum" (%1, %2) {dtype:Undefined,keepdim:false,stop_gradient:[true]} : (tensor<4x9216x768xf32>, tensor<2xi64>) -> tensor<768xf32>
    () = "ap_op.up_spider" (%3, %0) {} : (tensor<768xf32>, tensor<768xf32>) -> 
    (%4) = "pd_op.data" () {dtype:float32,name:"output",place:Place(undefined:0),shape:[4,9216,768],stop_gradient:[true]} : () -> tensor<4x9216x768xf32>
    () = "ap_op.up_spider" (%1, %4) {} : (tensor<4x9216x768xf32>, tensor<4x9216x768xf32>) -> 
}
I0228 19:41:16.056783 34354 ap_lower_fusion_op_pass.cc:2413] drr: tmp_access_drr_pass_1 mismatched.
I0228 19:41:16.056808 34354 ap_lower_fusion_op_pass.cc:2413] drr: tmp_access_drr_pass_1 mismatched.
I0228 19:41:16.057039 34354 ap_lower_fusion_op_pass.cc:2434] drr: tmp_access_drr_pass_1 matched.
I0228 19:41:16.057045 34354 ap_lower_fusion_op_pass.cc:308] drr: tmp_access_drr_pass_1 matched.
E0228 19:41:16.057113 34354 builtin_functions.cc:121] Print
after-remove_data_op2sum_op2data_op_pass {
    (%0) = "pd_op.data" () {dtype:float32,name:"mm_out",place:Place(undefined:0),shape:[4,9216,768],stop_gradient:[true]} : () -> tensor<4x9216x768xf32>
    (%1) = "pd_op.data" () {dtype:float32,name:"output",place:Place(undefined:0),shape:[4,9216,768],stop_gradient:[true]} : () -> tensor<4x9216x768xf32>
    () = "ap_op.up_spider" (%0, %1) {} : (tensor<4x9216x768xf32>, tensor<4x9216x768xf32>) -> 
}
I0228 19:41:16.057979 34354 ap_lower_fusion_op_pass.cc:2413] drr: tmp_access_drr_pass_2 mismatched.
I0228 19:41:16.058101 34354 ap_lower_fusion_op_pass.cc:2413] drr: tmp_access_drr_pass_2 mismatched.
I0228 19:41:16.058110 34354 ap_lower_fusion_op_pass.cc:2413] drr: tmp_access_drr_pass_2 mismatched.
I0228 19:41:16.058131 34354 ap_lower_fusion_op_pass.cc:2413] drr: tmp_access_drr_pass_1 mismatched.
I0228 19:41:16.058226 34354 ap_lower_fusion_op_pass.cc:2434] drr: tmp_access_drr_pass_1 matched.
I0228 19:41:16.058233 34354 ap_lower_fusion_op_pass.cc:308] drr: tmp_access_drr_pass_1 matched.
E0228 19:41:16.058269 34354 builtin_functions.cc:121] Print
after-remove-input-output-access_topo_pass {
}
I0228 19:41:16.058501 34354 ap_lower_fusion_op_pass.cc:2299] drr: matmul_binary_fusion matched.
I0228 19:41:16.058508 34354 ap_lower_fusion_op_pass.cc:308] drr: matmul_binary_fusion matched.
I0228 19:41:16.060542 34354 ap_lower_fusion_op_pass.cc:2434] drr: tmp_access_drr_pass_1 matched.
I0228 19:41:16.060556 34354 ap_lower_fusion_op_pass.cc:308] drr: tmp_access_drr_pass_1 matched.
I0228 19:41:16.060711 34354 ap_lower_fusion_op_pass.cc:2434] drr: tmp_access_drr_pass_1 matched.
I0228 19:41:16.060719 34354 ap_lower_fusion_op_pass.cc:308] drr: tmp_access_drr_pass_1 matched.
I0228 19:41:16.061488 34354 ap_lower_fusion_op_pass.cc:2434] drr: tmp_access_drr_pass_1 matched.
I0228 19:41:16.061501 34354 ap_lower_fusion_op_pass.cc:308] drr: tmp_access_drr_pass_1 matched.
I0228 19:41:16.062441 34354 ap_lower_fusion_op_pass.cc:2434] drr: tmp_access_drr_pass_1 matched.
I0228 19:41:16.062455 34354 ap_lower_fusion_op_pass.cc:308] drr: tmp_access_drr_pass_1 matched.
I0228 19:41:16.069638 34354 ap_lower_fusion_op_pass.cc:2413] drr: down_spider_load_from_global mismatched.
I0228 19:41:16.069728 34354 ap_lower_fusion_op_pass.cc:2434] drr: down_spider_load_from_global matched.
I0228 19:41:16.069736 34354 ap_lower_fusion_op_pass.cc:308] drr: down_spider_load_from_global matched.
I0228 19:41:16.069856 34354 ap_lower_fusion_op_pass.cc:2434] drr: down_spider_add matched.
I0228 19:41:16.069862 34354 ap_lower_fusion_op_pass.cc:308] drr: down_spider_add matched.
I0228 19:41:16.069952 34354 ap_lower_fusion_op_pass.cc:2434] drr: cinn_op_yield_store matched.
I0228 19:41:16.069957 34354 ap_lower_fusion_op_pass.cc:308] drr: cinn_op_yield_store matched.
I0228 19:41:16.070008 34354 ap_lower_fusion_op_pass.cc:2413] drr: pd_op_left_full_add mismatched.
I0228 19:41:16.070029 34354 ap_lower_fusion_op_pass.cc:2413] drr: pd_op_right_full_add mismatched.
I0228 19:41:16.070111 34354 ap_lower_fusion_op_pass.cc:2434] drr: pd_op_multiply matched.
I0228 19:41:16.070116 34354 ap_lower_fusion_op_pass.cc:308] drr: pd_op_multiply matched.
I0228 19:41:16.070201 34354 ap_lower_fusion_op_pass.cc:2434] drr: pd_op_erf matched.
I0228 19:41:16.070207 34354 ap_lower_fusion_op_pass.cc:308] drr: pd_op_erf matched.
I0228 19:41:16.070326 34354 ap_lower_fusion_op_pass.cc:2434] drr: pd_op_left_full_add matched.
I0228 19:41:16.070333 34354 ap_lower_fusion_op_pass.cc:308] drr: pd_op_left_full_add matched.
I0228 19:41:16.070382 34354 ap_lower_fusion_op_pass.cc:2413] drr: pd_op_left_full_add mismatched.
I0228 19:41:16.070401 34354 ap_lower_fusion_op_pass.cc:2413] drr: pd_op_right_full_add mismatched.
I0228 19:41:16.070466 34354 ap_lower_fusion_op_pass.cc:2434] drr: pd_op_multiply matched.
I0228 19:41:16.070472 34354 ap_lower_fusion_op_pass.cc:308] drr: pd_op_multiply matched.
I0228 19:41:16.070564 34354 ap_lower_fusion_op_pass.cc:2434] drr: pd_op_multiply matched.
I0228 19:41:16.070570 34354 ap_lower_fusion_op_pass.cc:308] drr: pd_op_multiply matched.
I0228 19:41:16.070649 34354 ap_lower_fusion_op_pass.cc:2434] drr: cinn_op_yield_store matched.
I0228 19:41:16.070657 34354 ap_lower_fusion_op_pass.cc:308] drr: cinn_op_yield_store matched.
I0228 19:41:16.070705 34354 ap_lower_fusion_op_pass.cc:2413] drr: down_spider_load_from_global mismatched.
I0228 19:41:16.070782 34354 ap_lower_fusion_op_pass.cc:2434] drr: down_spider_relu matched.
I0228 19:41:16.070788 34354 ap_lower_fusion_op_pass.cc:308] drr: down_spider_relu matched.
I0228 19:41:16.070919 34354 ap_lower_fusion_op_pass.cc:2434] drr: cinn_broadcast_up_spider matched.
I0228 19:41:16.070925 34354 ap_lower_fusion_op_pass.cc:308] drr: cinn_broadcast_up_spider matched.
I0228 19:41:16.071054 34354 ap_lower_fusion_op_pass.cc:2413] drr: pd_op_left_full_add mismatched.
I0228 19:41:16.071138 34354 ap_lower_fusion_op_pass.cc:2434] drr: pd_op_right_full_add matched.
I0228 19:41:16.071143 34354 ap_lower_fusion_op_pass.cc:308] drr: pd_op_right_full_add matched.
I0228 19:41:16.071202 34354 ap_lower_fusion_op_pass.cc:2413] drr: down_spider_relu mismatched.
I0228 19:41:16.071224 34354 ap_lower_fusion_op_pass.cc:2413] drr: down_spider_relu mismatched.
I0228 19:41:16.071240 34354 ap_lower_fusion_op_pass.cc:2413] drr: pd_op_left_full_add mismatched.
I0228 19:41:16.071332 34354 ap_lower_fusion_op_pass.cc:2434] drr: pd_op_right_full_add matched.
I0228 19:41:16.071339 34354 ap_lower_fusion_op_pass.cc:308] drr: pd_op_right_full_add matched.
I0228 19:41:16.071401 34354 ap_lower_fusion_op_pass.cc:2413] drr: down_spider_add mismatched.
I0228 19:41:16.071424 34354 ap_lower_fusion_op_pass.cc:2413] drr: down_spider_relu mismatched.
I0228 19:41:16.071446 34354 ap_lower_fusion_op_pass.cc:2413] drr: down_spider_load_from_global mismatched.
I0228 19:41:16.071468 34354 ap_lower_fusion_op_pass.cc:2413] drr: cinn_broadcast_up_spider mismatched.
I0228 19:41:16.071489 34354 ap_lower_fusion_op_pass.cc:2413] drr: expand_up_spider mismatched.
I0228 19:41:16.071509 34354 ap_lower_fusion_op_pass.cc:2413] drr: left_down_spider_up_spider mismatched.
I0228 19:41:16.071528 34354 ap_lower_fusion_op_pass.cc:2413] drr: right_down_spider_up_spider mismatched.
I0228 19:41:16.071545 34354 ap_lower_fusion_op_pass.cc:2413] drr: triangle_left_down_spider_up_spider mismatched.
I0228 19:41:16.071622 34354 ap_lower_fusion_op_pass.cc:2434] drr: down_spider_relu matched.
I0228 19:41:16.071628 34354 ap_lower_fusion_op_pass.cc:308] drr: down_spider_relu matched.
I0228 19:41:16.071727 34354 ap_lower_fusion_op_pass.cc:2434] drr: down_spider_relu matched.
I0228 19:41:16.071734 34354 ap_lower_fusion_op_pass.cc:308] drr: down_spider_relu matched.
I0228 19:41:16.071830 34354 ap_lower_fusion_op_pass.cc:2434] drr: down_spider_relu matched.
I0228 19:41:16.071836 34354 ap_lower_fusion_op_pass.cc:308] drr: down_spider_relu matched.
I0228 19:41:16.071933 34354 ap_lower_fusion_op_pass.cc:2434] drr: down_spider_relu matched.
I0228 19:41:16.071938 34354 ap_lower_fusion_op_pass.cc:308] drr: down_spider_relu matched.
I0228 19:41:16.072045 34354 ap_lower_fusion_op_pass.cc:2434] drr: down_spider_add matched.
I0228 19:41:16.072052 34354 ap_lower_fusion_op_pass.cc:308] drr: down_spider_add matched.
I0228 19:41:16.072157 34354 ap_lower_fusion_op_pass.cc:2434] drr: down_spider_relu matched.
I0228 19:41:16.072165 34354 ap_lower_fusion_op_pass.cc:308] drr: down_spider_relu matched.
I0228 19:41:16.072211 34354 ap_lower_fusion_op_pass.cc:2413] drr: down_spider_load_from_global mismatched.
I0228 19:41:16.072234 34354 ap_lower_fusion_op_pass.cc:2413] drr: cinn_broadcast_up_spider mismatched.
I0228 19:41:16.072255 34354 ap_lower_fusion_op_pass.cc:2413] drr: expand_up_spider mismatched.
I0228 19:41:16.072275 34354 ap_lower_fusion_op_pass.cc:2413] drr: left_down_spider_up_spider mismatched.
I0228 19:41:16.072307 34354 ap_lower_fusion_op_pass.cc:2413] drr: right_down_spider_up_spider mismatched.
I0228 19:41:16.072403 34354 ap_lower_fusion_op_pass.cc:2434] drr: triangle_left_down_spider_up_spider matched.
I0228 19:41:16.072408 34354 ap_lower_fusion_op_pass.cc:308] drr: triangle_left_down_spider_up_spider matched.
I0228 19:41:16.072443 34354 ap_lower_fusion_op_pass.cc:2413] drr: cinn_broadcast_up_spider mismatched.
I0228 19:41:16.072464 34354 ap_lower_fusion_op_pass.cc:2413] drr: expand_up_spider mismatched.
I0228 19:41:16.072484 34354 ap_lower_fusion_op_pass.cc:2413] drr: left_down_spider_up_spider mismatched.
I0228 19:41:16.072503 34354 ap_lower_fusion_op_pass.cc:2413] drr: right_down_spider_up_spider mismatched.
I0228 19:41:16.072521 34354 ap_lower_fusion_op_pass.cc:2413] drr: triangle_left_down_spider_up_spider mismatched.
I0228 19:41:16.072543 34354 ap_lower_fusion_op_pass.cc:2413] drr: down_spider_load_from_global mismatched.
I0228 19:41:16.072563 34354 ap_lower_fusion_op_pass.cc:2413] drr: cinn_broadcast_up_spider mismatched.
I0228 19:41:16.072582 34354 ap_lower_fusion_op_pass.cc:2413] drr: expand_up_spider mismatched.
I0228 19:41:16.072602 34354 ap_lower_fusion_op_pass.cc:2413] drr: left_down_spider_up_spider mismatched.
I0228 19:41:16.072620 34354 ap_lower_fusion_op_pass.cc:2413] drr: right_down_spider_up_spider mismatched.
I0228 19:41:16.072638 34354 ap_lower_fusion_op_pass.cc:2413] drr: triangle_left_down_spider_up_spider mismatched.
I0228 19:41:16.073894 34354 ap_lower_fusion_op_pass.cc:2413] drr: tmp_access_drr_pass_1 mismatched.
I0228 19:41:16.074055 34354 ap_lower_fusion_op_pass.cc:2434] drr: tmp_access_drr_pass_1 matched.
I0228 19:41:16.074064 34354 ap_lower_fusion_op_pass.cc:308] drr: tmp_access_drr_pass_1 matched.
I0228 19:41:16.074774 34354 ap_lower_fusion_op_pass.cc:2434] drr: tmp_access_drr_pass_1 matched.
I0228 19:41:16.074786 34354 ap_lower_fusion_op_pass.cc:308] drr: tmp_access_drr_pass_1 matched.
E0228 19:41:16.074916 34354 builtin_functions.cc:121] Print
index_func_unique_id2index_program:
 OrderedDict([[input2, {
    (%0) = "pd_op.data" () {dtype:float32,name:"mm_out",place:Place(undefined:0),shape:[4,9216,768],stop_gradient:[true]} : () -> tensor<4x9216x768xf32>
    (%1) = "pd_op.full_int_array" () {dtype:int64,place:Place(cpu),stop_gradient:[true],value:[0,1]} : () -> tensor<2xi64>
    (%2) = "pd_op.sum" (%0, %1) {dtype:Undefined,keepdim:false,stop_gradient:[true]} : (tensor<4x9216x768xf32>, tensor<2xi64>) -> tensor<768xf32>
    () = "cf.yield" (%2) {} : (tensor<768xf32>) -> 
}
]])
I0228 19:41:16.075425 34354 ap_lower_fusion_op_pass.cc:2434] drr: tmp_access_drr_pass_1 matched.
I0228 19:41:16.075436 34354 ap_lower_fusion_op_pass.cc:308] drr: tmp_access_drr_pass_1 matched.
I0228 19:41:16.076208 34354 ap_lower_fusion_op_pass.cc:2413] drr: tmp_access_drr_pass_1 mismatched.
I0228 19:41:16.076301 34354 ap_lower_fusion_op_pass.cc:2434] drr: tmp_access_drr_pass_1 matched.
I0228 19:41:16.076308 34354 ap_lower_fusion_op_pass.cc:308] drr: tmp_access_drr_pass_1 matched.
I0228 19:41:16.076995 34354 ap_lower_fusion_op_pass.cc:2434] drr: tmp_access_drr_pass_1 matched.
I0228 19:41:16.077008 34354 ap_lower_fusion_op_pass.cc:308] drr: tmp_access_drr_pass_1 matched.
E0228 19:41:16.077132 34354 builtin_functions.cc:121] Print
mut_program: {
    (%0) = "pd_op.data" () {dtype:float32,name:"input2",place:Place(undefined:0),shape:[768],stop_gradient:[true]} : () -> tensor<768xf32>
    (%1) = "ap_op.load_from_global" (%0) {index_func_unique_id:"input2"} : (tensor<768xf32>) -> tensor<768xf32>
    (%2) = "ap_op.load_from_register" () {name:"mm_out",register_var_name:"x",symbolic_shape_or_data:,type:tensor<4x9216x768xf32>} : () -> tensor<4x9216x768xf32>
    (%3) = "cinn_op.broadcast" (%1) {broadcast_axes:[2],out_shape:[4,9216,768],stop_gradient:[true]} : (tensor<768xf32>) -> tensor<4x9216x768xf32>
    (%4) = "pd_op.add" (%2, %3) {stop_gradient:[true]} : (tensor<4x9216x768xf32>, tensor<4x9216x768xf32>) -> tensor<4x9216x768xf32>
    (%5) = "cinn_op.yield_store" (%4) {} : (tensor<4x9216x768xf32>) -> tensor<4x9216x768xf32>
    () = "ap_op.store_to_register" (%5) {name:"output",register_var_name:"out"} : (tensor<4x9216x768xf32>) -> 
}
E0228 19:41:16.077879 34354 builtin_functions.cc:121] Print
-- kargs_name_pair_list: [[<InTensorDataPtrKernelArgId object at 0x53492d00>, input0], [<InTensorDataPtrKernelArgId object at 0x533fd5b0>, input1], [<OutTensorDataPtrKernelArgId object at 0x5349de40>, output], [4, input0_dim0], [9216, input0_dim1], [192, input0_dim2], [192, input1_dim0], [768, input1_dim1]]
E0228 19:41:16.080340 34354 builtin_functions.cc:121] Print
-- matmul_binary_epilogue_code:
 float op1_out0 = (args.in_ptr_0[(coord.column)]);
    float op4_out0 = (x + op1_out0);
    out = op4_out0;
E0228 19:41:16.080355 34354 builtin_functions.cc:121] Print
----begin making project
E0228 19:41:16.081066 34354 builtin_functions.cc:121] Print
----end making project
E0228 19:41:16.082351 34354 builtin_functions.cc:121] Print
....begin copy program
E0228 19:41:16.082441 34354 ap_lower_fusion_op_pass.cc:2279] 
Traceback (most recent call last):
  File "/work/Paddle/paddle/ap/src/paddle/pass/ap_lower_fusion_op_pass.cc", line 2294, in operator()
    GetMatchCtx(op)
  File "/work/Paddle/paddle/ap/src/paddle/pass/ap_lower_fusion_op_pass.cc", line 1792, in operator()
    ConstraintApplier{}.Match(ctx_.drr_ctx, opt_graph_match_ctx.value())
  File "/work/Paddle/paddle/ap/src/paddle/pass/ap_lower_fusion_op_pass.cc", line 1622, in operator()
    ap_drr_helper.Interpret(constraint_func, args)
  File "/work/Paddle/paddle/ap/include/axpr/cps_interpreter.h", line 69, in operator()
    InterpretComposedCallUntilHalt(&composed_call)
  File "/work/Paddle/paddle/ap/include/axpr/cps_interpreter.h", line 101, in operator()
    InterpretComposedCall(composed_call)
  File "/work/Paddle/paddle/ap/include/axpr/cps_interpreter.h", line 568, in operator()
    func(obj, composed_call->args)
  File "/work/Paddle/paddle/ap/src/paddle/pass/ir_helper_method_class.cc", line 270, in operator()
    InitIrMapping(NameGetter, pir::GetUsedExternalValue(*block), &ir_mapping, new_program->block())
  File "/work/Paddle/paddle/ap/src/paddle/pass/ir_helper_method_class.cc", line 305, in operator()
    NameGetter(free_value)
  File "/work/Paddle/paddle/ap/src/paddle/pass/ir_helper_method_class.cc", line 140, in operator()
    iter != map.end()

ValueError: Check 'iter != map.end()' failed.
pass_name: matmul_binary_fusion
E0228 19:41:16.082990 34354 ap_lower_fusion_op_pass.cc:2279] 
Traceback (most recent call last):
  File "/work/Paddle/paddle/ap/src/paddle/pass/ap_lower_fusion_op_pass.cc", line 2294, in operator()
    GetMatchCtx(op)
  File "/work/Paddle/paddle/ap/src/paddle/pass/ap_lower_fusion_op_pass.cc", line 1792, in operator()
    ConstraintApplier{}.Match(ctx_.drr_ctx, opt_graph_match_ctx.value())
  File "/work/Paddle/paddle/ap/src/paddle/pass/ap_lower_fusion_op_pass.cc", line 1622, in operator()
    ap_drr_helper.Interpret(constraint_func, args)
  File "/work/Paddle/paddle/ap/include/axpr/cps_interpreter.h", line 69, in operator()
    InterpretComposedCallUntilHalt(&composed_call)
  File "/work/Paddle/paddle/ap/include/axpr/cps_interpreter.h", line 101, in operator()
    InterpretComposedCall(composed_call)
  File "/work/Paddle/paddle/ap/include/axpr/cps_interpreter.h", line 568, in operator()
    func(obj, composed_call->args)
  File "/work/Paddle/paddle/ap/src/paddle/pass/ir_helper_method_class.cc", line 270, in operator()
    InitIrMapping(NameGetter, pir::GetUsedExternalValue(*block), &ir_mapping, new_program->block())
  File "/work/Paddle/paddle/ap/src/paddle/pass/ir_helper_method_class.cc", line 305, in operator()
    NameGetter(free_value)
  File "/work/Paddle/paddle/ap/src/paddle/pass/ir_helper_method_class.cc", line 140, in operator()
    iter != map.end()

ValueError: Check 'iter != map.end()' failed.
pass_name: matmul_trinary_fusion
E0228 19:41:16.083258 34354 builtin_functions.cc:121] Print
....begin copy program
E0228 19:41:16.084168 34354 builtin_functions.cc:121] Print
....exit copy program
E0228 19:41:16.084252 34354 builtin_functions.cc:121] Print
before-access_topo_pass {
    (%0) = "pd_op.data" () {dtype:float32,name:"input2",place:Place(undefined:0),shape:[768],stop_gradient:[true]} : () -> tensor<768xf32>
    (%1) = "pd_op.data" () {dtype:float32,name:"mm_out",place:Place(undefined:0),shape:[4,9216,768],stop_gradient:[true]} : () -> tensor<4x9216x768xf32>
    (%2) = "cinn_op.broadcast" (%0) {broadcast_axes:[2],out_shape:[4,9216,768],stop_gradient:[true]} : (tensor<768xf32>) -> tensor<4x9216x768xf32>
    (%3) = "pd_op.add" (%1, %2) {stop_gradient:[true]} : (tensor<4x9216x768xf32>, tensor<4x9216x768xf32>) -> tensor<4x9216x768xf32>
    (%4) = "cinn_op.yield_store" (%3) {} : (tensor<4x9216x768xf32>) -> tensor<4x9216x768xf32>
    (%5) = "pd_op.full" () {dtype:float32,place:Place(undefined:0),shape:[4,9216,768],stop_gradient:[true],value:0.707107} : () -> tensor<4x9216x768xf32>
    (%6) = "pd_op.multiply" (%3, %5) {stop_gradient:[true]} : (tensor<4x9216x768xf32>, tensor<4x9216x768xf32>) -> tensor<4x9216x768xf32>
    (%7) = "pd_op.erf" (%6) {stop_gradient:[true]} : (tensor<4x9216x768xf32>) -> tensor<4x9216x768xf32>
    (%8) = "pd_op.full" () {dtype:float32,place:Place(undefined:0),shape:[4,9216,768],stop_gradient:[true],value:1} : () -> tensor<4x9216x768xf32>
    (%9) = "pd_op.add" (%8, %7) {stop_gradient:[true]} : (tensor<4x9216x768xf32>, tensor<4x9216x768xf32>) -> tensor<4x9216x768xf32>
    (%10) = "pd_op.full" () {dtype:float32,place:Place(undefined:0),shape:[4,9216,768],stop_gradient:[true],value:0.5} : () -> tensor<4x9216x768xf32>
    (%11) = "pd_op.multiply" (%3, %10) {stop_gradient:[true]} : (tensor<4x9216x768xf32>, tensor<4x9216x768xf32>) -> tensor<4x9216x768xf32>
    (%12) = "pd_op.multiply" (%11, %9) {stop_gradient:[true]} : (tensor<4x9216x768xf32>, tensor<4x9216x768xf32>) -> tensor<4x9216x768xf32>
    (%13) = "cinn_op.yield_store" (%12) {} : (tensor<4x9216x768xf32>) -> tensor<4x9216x768xf32>
    () = "cf.yield" (%4, %13) {} : (tensor<4x9216x768xf32>, tensor<4x9216x768xf32>) -> 
}
I0228 19:41:16.085367 34354 ap_lower_fusion_op_pass.cc:2434] drr: tmp_access_drr_pass_1 matched.
I0228 19:41:16.085381 34354 ap_lower_fusion_op_pass.cc:308] drr: tmp_access_drr_pass_1 matched.
I0228 19:41:16.085528 34354 ap_lower_fusion_op_pass.cc:2434] drr: tmp_access_drr_pass_1 matched.
I0228 19:41:16.085536 34354 ap_lower_fusion_op_pass.cc:308] drr: tmp_access_drr_pass_1 matched.
E0228 19:41:16.085791 34354 builtin_functions.cc:121] Print
after-init-access_topo_pass {
    (%0) = "pd_op.data" () {dtype:float32,name:"input2",place:Place(undefined:0),shape:[768],stop_gradient:[true]} : () -> tensor<768xf32>
    (%1) = "pd_op.data" () {dtype:float32,name:"mm_out",place:Place(undefined:0),shape:[4,9216,768],stop_gradient:[true]} : () -> tensor<4x9216x768xf32>
    (%2) = "ap_op.down_spider" (%1) {} : (tensor<4x9216x768xf32>) -> tensor<4x9216x768xf32>
    (%3) = "cinn_op.broadcast" (%0) {broadcast_axes:[2],out_shape:[4,9216,768],stop_gradient:[true]} : (tensor<768xf32>) -> tensor<4x9216x768xf32>
    (%4) = "pd_op.add" (%2, %3) {stop_gradient:[true]} : (tensor<4x9216x768xf32>, tensor<4x9216x768xf32>) -> tensor<4x9216x768xf32>
    (%5) = "cinn_op.yield_store" (%4) {} : (tensor<4x9216x768xf32>) -> tensor<4x9216x768xf32>
    (%6) = "pd_op.full" () {dtype:float32,place:Place(undefined:0),shape:[4,9216,768],stop_gradient:[true],value:0.707107} : () -> tensor<4x9216x768xf32>
    (%7) = "pd_op.multiply" (%4, %6) {stop_gradient:[true]} : (tensor<4x9216x768xf32>, tensor<4x9216x768xf32>) -> tensor<4x9216x768xf32>
    (%8) = "pd_op.erf" (%7) {stop_gradient:[true]} : (tensor<4x9216x768xf32>) -> tensor<4x9216x768xf32>
    (%9) = "pd_op.full" () {dtype:float32,place:Place(undefined:0),shape:[4,9216,768],stop_gradient:[true],value:1} : () -> tensor<4x9216x768xf32>
    (%10) = "pd_op.add" (%9, %8) {stop_gradient:[true]} : (tensor<4x9216x768xf32>, tensor<4x9216x768xf32>) -> tensor<4x9216x768xf32>
    (%11) = "pd_op.full" () {dtype:float32,place:Place(undefined:0),shape:[4,9216,768],stop_gradient:[true],value:0.5} : () -> tensor<4x9216x768xf32>
    (%12) = "pd_op.multiply" (%4, %11) {stop_gradient:[true]} : (tensor<4x9216x768xf32>, tensor<4x9216x768xf32>) -> tensor<4x9216x768xf32>
    (%13) = "pd_op.multiply" (%12, %10) {stop_gradient:[true]} : (tensor<4x9216x768xf32>, tensor<4x9216x768xf32>) -> tensor<4x9216x768xf32>
    (%14) = "cinn_op.yield_store" (%13) {} : (tensor<4x9216x768xf32>) -> tensor<4x9216x768xf32>
    (%15) = "pd_op.data" () {dtype:float32,name:"output",place:Place(undefined:0),shape:[4,9216,768],stop_gradient:[true]} : () -> tensor<4x9216x768xf32>
    () = "ap_op.up_spider" (%5, %15) {} : (tensor<4x9216x768xf32>, tensor<4x9216x768xf32>) -> 
}
I0228 19:41:16.092734 34354 ap_lower_fusion_op_pass.cc:2434] drr: down_spider_add matched.
I0228 19:41:16.092747 34354 ap_lower_fusion_op_pass.cc:308] drr: down_spider_add matched.
I0228 19:41:16.092847 34354 ap_lower_fusion_op_pass.cc:2434] drr: cinn_op_yield_store matched.
I0228 19:41:16.092854 34354 ap_lower_fusion_op_pass.cc:308] drr: cinn_op_yield_store matched.
I0228 19:41:16.092905 34354 ap_lower_fusion_op_pass.cc:2413] drr: pd_op_left_full_add mismatched.
I0228 19:41:16.092926 34354 ap_lower_fusion_op_pass.cc:2413] drr: pd_op_right_full_add mismatched.
I0228 19:41:16.092991 34354 ap_lower_fusion_op_pass.cc:2434] drr: pd_op_multiply matched.
I0228 19:41:16.092998 34354 ap_lower_fusion_op_pass.cc:308] drr: pd_op_multiply matched.
I0228 19:41:16.093083 34354 ap_lower_fusion_op_pass.cc:2434] drr: pd_op_erf matched.
I0228 19:41:16.093089 34354 ap_lower_fusion_op_pass.cc:308] drr: pd_op_erf matched.
I0228 19:41:16.093189 34354 ap_lower_fusion_op_pass.cc:2434] drr: pd_op_left_full_add matched.
I0228 19:41:16.093195 34354 ap_lower_fusion_op_pass.cc:308] drr: pd_op_left_full_add matched.
I0228 19:41:16.093242 34354 ap_lower_fusion_op_pass.cc:2413] drr: pd_op_left_full_add mismatched.
I0228 19:41:16.093261 34354 ap_lower_fusion_op_pass.cc:2413] drr: pd_op_right_full_add mismatched.
I0228 19:41:16.093333 34354 ap_lower_fusion_op_pass.cc:2434] drr: pd_op_multiply matched.
I0228 19:41:16.093338 34354 ap_lower_fusion_op_pass.cc:308] drr: pd_op_multiply matched.
I0228 19:41:16.093429 34354 ap_lower_fusion_op_pass.cc:2434] drr: pd_op_multiply matched.
I0228 19:41:16.093436 34354 ap_lower_fusion_op_pass.cc:308] drr: pd_op_multiply matched.
I0228 19:41:16.093514 34354 ap_lower_fusion_op_pass.cc:2434] drr: cinn_op_yield_store matched.
I0228 19:41:16.093521 34354 ap_lower_fusion_op_pass.cc:308] drr: cinn_op_yield_store matched.
I0228 19:41:16.093569 34354 ap_lower_fusion_op_pass.cc:2413] drr: cinn_broadcast_up_spider mismatched.
I0228 19:41:16.093591 34354 ap_lower_fusion_op_pass.cc:2413] drr: expand_up_spider mismatched.
I0228 19:41:16.093612 34354 ap_lower_fusion_op_pass.cc:2413] drr: left_down_spider_up_spider mismatched.
I0228 19:41:16.093631 34354 ap_lower_fusion_op_pass.cc:2413] drr: right_down_spider_up_spider mismatched.
I0228 19:41:16.093650 34354 ap_lower_fusion_op_pass.cc:2413] drr: triangle_left_down_spider_up_spider mismatched.
I0228 19:41:16.093729 34354 ap_lower_fusion_op_pass.cc:2434] drr: down_spider_relu matched.
I0228 19:41:16.093735 34354 ap_lower_fusion_op_pass.cc:308] drr: down_spider_relu matched.
I0228 19:41:16.093887 34354 ap_lower_fusion_op_pass.cc:2434] drr: cinn_broadcast_up_spider matched.
I0228 19:41:16.093895 34354 ap_lower_fusion_op_pass.cc:308] drr: cinn_broadcast_up_spider matched.
I0228 19:41:16.094028 34354 ap_lower_fusion_op_pass.cc:2413] drr: pd_op_left_full_add mismatched.
I0228 19:41:16.094112 34354 ap_lower_fusion_op_pass.cc:2434] drr: pd_op_right_full_add matched.
I0228 19:41:16.094118 34354 ap_lower_fusion_op_pass.cc:308] drr: pd_op_right_full_add matched.
I0228 19:41:16.094177 34354 ap_lower_fusion_op_pass.cc:2413] drr: down_spider_relu mismatched.
I0228 19:41:16.094199 34354 ap_lower_fusion_op_pass.cc:2413] drr: down_spider_relu mismatched.
I0228 19:41:16.094215 34354 ap_lower_fusion_op_pass.cc:2413] drr: pd_op_left_full_add mismatched.
I0228 19:41:16.094305 34354 ap_lower_fusion_op_pass.cc:2434] drr: pd_op_right_full_add matched.
I0228 19:41:16.094311 34354 ap_lower_fusion_op_pass.cc:308] drr: pd_op_right_full_add matched.
I0228 19:41:16.094372 34354 ap_lower_fusion_op_pass.cc:2413] drr: down_spider_add mismatched.
I0228 19:41:16.094393 34354 ap_lower_fusion_op_pass.cc:2413] drr: down_spider_relu mismatched.
I0228 19:41:16.094414 34354 ap_lower_fusion_op_pass.cc:2413] drr: cinn_broadcast_up_spider mismatched.
I0228 19:41:16.094434 34354 ap_lower_fusion_op_pass.cc:2413] drr: expand_up_spider mismatched.
I0228 19:41:16.094509 34354 ap_lower_fusion_op_pass.cc:2434] drr: left_down_spider_up_spider matched.
I0228 19:41:16.094516 34354 ap_lower_fusion_op_pass.cc:308] drr: left_down_spider_up_spider matched.
I0228 19:41:16.094564 34354 ap_lower_fusion_op_pass.cc:2413] drr: cinn_broadcast_up_spider mismatched.
I0228 19:41:16.094585 34354 ap_lower_fusion_op_pass.cc:2413] drr: expand_up_spider mismatched.
…
float op4_out0 = (x + op1_out0);\n    out = op4_out0;\n    return out;\n  }\n};\n\n}\n\nextern \\"C\\" {\n\nvoid MatmulBinaryKernel(void* stream_ptr, const float* input0, const float* input1, float* output, int64_t input0_dim0, int64_t input0_dim1, int64_t input0_dim2, int64_t input1_dim1, const float* in_ptr_0) {\n  std::vector<int64_t> input0_shape;\n  input0_shape.resize(3);\n  input0_shape[0] = input0_dim0;\n  input0_shape[1] = input0_dim1;\n  input0_shape[2] = input0_dim2;\n\n  std::vector<int64_t> input1_shape;\n  input1_shape.resize(2);\n  input1_shape[0] = input0_dim2;\n  input1_shape[1] = input1_dim1;\n\n  cudaStream_t* cuda_stream_ptr = reinterpret_cast<cudaStream_t*>(stream_ptr);\n  ap::GemmEpilogueParams params(\n      *cuda_stream_ptr, input0, input1, nullptr, output, input0_shape, input1_shape, std::vector<int64_t>{});\n\n  using ElementT = float;\n  using ElementComputeT = float;\n\n  typename ap::VariadicEpilogueFunctor<ElementComputeT>::Arguments epilogue_args;\n\n  epilogue_args.in_ptr_0 = in_ptr_0;\n\n  ap::CutlassMatmulAddVariadic<ElementT, ElementComputeT, ap::VariadicEpilogueFunctor>(params, epilogue_args);\n}\n}\n\n  \"}]],[\"___81\",[\"__builtin_getattr__\",\"Project\",{\"str\":\"Directory\"}]],[\"___82\",[\"__builtin_list__\",{\"str\":\"make.sh\"},\"___78\"]],[\"___83\",[\"__builtin_list__\",{\"str\":\"matmul_binary_kernel.cu\"},\"___80\"]],[\"___84\",[\"___81\",\"___82\",\"___83\"]],[\"___85\",[\"BuiltinSerializableAttrMap\",\"___76\"]],[\"___86\",[\"__builtin_list__\",{\"str\":\"compile_cmd\"},{\"str\":\"sh make.sh\"}]],[\"___87\",[\"__builtin_list__\",{\"str\":\"nested_files\"},\"___84\"]],[\"___88\",[\"__builtin_list__\",{\"str\":\"others\"},\"___85\"]],[\"___89\",[\"__builtin_list__\",{\"str\":\"so_relative_path\"},{\"str\":\"libmatmul_binary_kernel.so\"}]],[\"___90\",[\"__builtin_list__\"]],[\"___91\",[\"__builtin_list__\",\"___86\",\"___87\",\"___88\",\"___89\"]],[\"___92\",[\"__builtin_PackedArgs__\",\"___90\",\"___91\"]],[\"___93\",[\"__builtin_list__\",\"___73\"]],[\"___94\",[\"Project\",\"___92\"]]],[\"CodeModule\",\"___93\",\"___94\"]]]",infer_meta_lambda:"[\"lambda\",[\"inputs\",\"outputs\"],[\"__builtin_let__\",[[\"___95\",[\"__builtin_getitem__\",\"outputs\",0]],[\"___96\",[\"__builtin_list__\",4,9216,768]],[\"___97\",[\"__builtin_setattr__\",\"___95\",{\"str\":\"dims\"}]],[\"___98\",[\"___97\",{\"str\":\"dims\"},\"___96\"]],[\"___99\",[\"__builtin_getattr__\",\"DataType\",{\"str\":\"float\"}]],[\"___100\",[\"__builtin_setattr__\",\"___95\",{\"str\":\"dtype\"}]],[\"___101\",[\"___100\",{\"str\":\"dtype\"},\"___99\"]]],null]]",kernel_dispatch_const_data_lambda:"[\"lambda\",[],[\"__builtin_let__\",[[\"___102\",[\"__builtin_list__\",{\"str\":\"output\"},0]],[\"___103\",[\"__builtin_list__\"]],[\"___104\",[\"__builtin_list__\",\"___102\"]],[\"___105\",[\"__builtin_PackedArgs__\",\"___103\",\"___104\"]],[\"___106\",[\"__builtin_list__\",{\"str\":\"input0\"},0]],[\"___107\",[\"__builtin_list__\",{\"str\":\"input1\"},1]],[\"___108\",[\"__builtin_list__\",{\"str\":\"input2\"},2]],[\"___109\",[\"__builtin_list__\"]],[\"___110\",[\"__builtin_list__\",\"___106\",\"___107\",\"___108\"]],[\"___111\",[\"__builtin_PackedArgs__\",\"___109\",\"___110\"]],[\"___112\",[\"__builtin_identity__\",[\"lambda\",[\"ctx\"],[\"__builtin_let__\",[[\"___50\",[\"__builtin_getattr__\",\"ctx\",{\"str\":\"inputs\"}]],[\"___51\",[\"__builtin_getitem__\",\"___50\",0]],[\"___52\",[\"__builtin_getattr__\",\"___51\",{\"str\":\"data_ptr\"}]]],[\"__builtin_identity__\",\"___52\"]]]]],[\"___113\",[\"__builtin_getattr__\",\"___112\",{\"str\":\"__function__\"}]],[\"___114\",[\"__builtin_identity__\",[\"lambda\",[\"ctx\"],[\"__builtin_let__\",[[\"___53\",[\"__builtin_getattr__\",\"ctx\",{\"str\":\"inputs\"}]],[\"___54\",[\"__builtin_getitem__\",\"___53\",1]],[\"___55\",[\"__builtin_getattr__\",\"___54\",{\"str\":\"data_ptr\"}]]],[\"__builtin_identity__\",\"___55\"]]]]],[\"___115\",[\"__builtin_getattr__\",\"___114\",{\"str\":\"__function__\"}]],[\"___116\",[\"__builtin_identity__\",[\"lambda\",[\"ctx\"],[\"__builtin_let__\",[[\"___56\",[\"__builtin_getattr__\",\"ctx\",{\"str\":\"outputs\"}]],[\"___57\",[\"__builtin_getitem__\",\"___56\",0]],[\"___58\",[\"__builtin_getattr__\",\"___57\",{\"str\":\"data_ptr\"}]]],[\"__builtin_identity__\",\"___58\"]]]]],[\"___117\",[\"__builtin_getattr__\",\"___116\",{\"str\":\"__function__\"}]],[\"___118\",[\"__builtin_identity__\",[\"lambda\",[\"ctx\"],[\"__builtin_let__\",[[\"___5\",[\"__builtin_getattr__\",\"ctx\",{\"str\":\"inputs\"}]],[\"___6\",[\"__builtin_getitem__\",\"___5\",0]],[\"___7\",[\"__builtin_getattr__\",\"___6\",{\"str\":\"shape\"}]],[\"___8\",[\"__builtin_getitem__\",\"___7\",0]],[\"___9\",[\"DataValue\",\"___8\"]],[\"___11\",[\"__builtin_getattr__\",\"___9\",{\"str\":\"cast\"}]],[\"___12\",[\"__builtin_getattr__\",\"DataType\",{\"str\":\"const_int64\"}]],[\"___13\",[\"___11\",\"___12\"]],[\"___10\",[\"__builtin_identity__\",\"___13\"]]],[\"__builtin_identity__\",\"___10\"]]]]],[\"___119\",[\"__builtin_getattr__\",\"___118\",{\"str\":\"__function__\"}]],[\"___120\",[\"__builtin_identity__\",[\"lambda\",[\"ctx\"],[\"__builtin_let__\",[[\"___14\",[\"__builtin_getattr__\",\"ctx\",{\"str\":\"inputs\"}]],[\"___15\",[\"__builtin_getitem__\",\"___14\",0]],[\"___16\",[\"__builtin_getattr__\",\"___15\",{\"str\":\"shape\"}]],[\"___17\",[\"__builtin_getitem__\",\"___16\",1]],[\"___18\",[\"DataValue\",\"___17\"]],[\"___20\",[\"__builtin_getattr__\",\"___18\",{\"str\":\"cast\"}]],[\"___21\",[\"__builtin_getattr__\",\"DataType\",{\"str\":\"const_int64\"}]],[\"___22\",[\"___20\",\"___21\"]],[\"___19\",[\"__builtin_identity__\",\"___22\"]]],[\"__builtin_identity__\",\"___19\"]]]]],[\"___121\",[\"__builtin_getattr__\",\"___120\",{\"str\":\"__function__\"}]],[\"___122\",[\"__builtin_identity__\",[\"lambda\",[\"ctx\"],[\"__builtin_let__\",[[\"___23\",[\"__builtin_getattr__\",\"ctx\",{\"str\":\"inputs\"}]],[\"___24\",[\"__builtin_getitem__\",\"___23\",0]],[\"___25\",[\"__builtin_getattr__\",\"___24\",{\"str\":\"shape\"}]],[\"___26\",[\"__builtin_getitem__\",\"___25\",2]],[\"___27\",[\"DataValue\",\"___26\"]],[\"___29\",[\"__builtin_getattr__\",\"___27\",{\"str\":\"cast\"}]],[\"___30\",[\"__builtin_getattr__\",\"DataType\",{\"str\":\"const_int64\"}]],[\"___31\",[\"___29\",\"___30\"]],[\"___28\",[\"__builtin_identity__\",\"___31\"]]],[\"__builtin_identity__\",\"___28\"]]]]],[\"___123\",[\"__builtin_getattr__\",\"___122\",{\"str\":\"__function__\"}]],[\"___124\",[\"__builtin_identity__\",[\"lambda\",[\"ctx\"],[\"__builtin_let__\",[[\"___41\",[\"__builtin_getattr__\",\"ctx\",{\"str\":\"inputs\"}]],[\"___42\",[\"__builtin_getitem__\",\"___41\",1]],[\"___43\",[\"__builtin_getattr__\",\"___42\",{\"str\":\"shape\"}]],[\"___44\",[\"__builtin_getitem__\",\"___43\",1]],[\"___45\",[\"DataValue\",\"___44\"]],[\"___47\",[\"__builtin_getattr__\",\"___45\",{\"str\":\"cast\"}]],[\"___48\",[\"__builtin_getattr__\",\"DataType\",{\"str\":\"const_int64\"}]],[\"___49\",[\"___47\",\"___48\"]],[\"___46\",[\"__builtin_identity__\",\"___49\"]]],[\"__builtin_identity__\",\"___46\"]]]]],[\"___125\",[\"__builtin_getattr__\",\"___124\",{\"str\":\"__function__\"}]],[\"___126\",[\"__builtin_identity__\",[\"lambda\",[\"ctx\"],[\"__builtin_let__\",[[\"___59\",[\"__builtin_getattr__\",\"ctx\",{\"str\":\"inputs\"}]],[\"___60\",[\"__builtin_getitem__\",\"___59\",2]],[\"___61\",[\"__builtin_getattr__\",\"___60\",{\"str\":\"data_ptr\"}]]],[\"__builtin_identity__\",\"___61\"]]]]],[\"___127\",[\"__builtin_getattr__\",\"___126\",{\"str\":\"__function__\"}]],[\"___128\",[\"__builtin_list__\",0,1,2]],[\"___129\",[\"BuiltinSerializableAttrMap\",\"___111\"]],[\"___130\",[\"__builtin_list__\",0]],[\"___131\",[\"BuiltinSerializableAttrMap\",\"___105\"]],[\"___132\",[\"__builtin_list__\",\"___113\",\"___115\",\"___117\",\"___119\",\"___121\",\"___123\",\"___125\",\"___127\"]],[\"___133\",[\"__builtin_list__\",{\"str\":\"__builtin_ap_kernel_input_indexes_slices\"},\"___128\"]],[\"___134\",[\"__builtin_list__\",{\"str\":\"__builtin_ap_kernel_input_name_to_index\"},\"___129\"]],[\"___135\",[\"__builtin_list__\",{\"str\":\"__builtin_ap_kernel_output_indexes_slices\"},\"___130\"]],[\"___136\",[\"__builtin_list__\",{\"str\":\"__builtin_ap_kernel_output_name_to_index\"},\"___131\"]],[\"___137\",[\"__builtin_list__\",{\"str\":\"kernel_args_getters\"},\"___132\"]],[\"___138\",[\"__builtin_list__\"]],[\"___139\",[\"__builtin_list__\",\"___133\",\"___134\",\"___135\",\"___136\",\"___137\"]],[\"___140\",[\"__builtin_PackedArgs__\",\"___138\",\"___139\"]]],[\"BuiltinSerializableAttrMap\",\"___140\"]]]",num_outputs:1,rnel_dispatch_lambda:"[\"lambda\",[\"ctx\"],[\"__builtin_let__\",[[\"___368\",[\"__builtin_getattr__\",\"ctx\",{\"str\":\"get_so_function\"}]],[\"___369\",[\"___368\",{\"str\":\"MatmulBinaryKernel\"}]],[\"so_func\",[\"__builtin_identity__\",\"___369\"]],[\"___371\",[\"__builtin_getattr__\",\"ctx\",{\"str\":\"device_ctx\"}]],[\"___370\",[\"__builtin_getattr__\",\"___371\",{\"str\":\"get_stream_addr_as_void_ptr\"}]],[\"___372\",[\"___370\"]],[\"stream_ptr\",[\"__builtin_identity__\",\"___372\"]],[\"___374\",[\"__builtin_getattr__\",\"ctx\",{\"str\":\"kernel_dispatch_const_data\"}]],[\"___373\",[\"__builtin_getattr__\",\"___374\",{\"str\":\"kernel_args_getters\"}]],[\"getters\",[\"__builtin_identity__\",\"___373\"]],[\"___376\",[\"map\",[\"lambda\",[\"getter\"],[\"__builtin_let__\",[[\"___375\",[\"getter\",\"ctx\"]]],[\"__builtin_identity__\",\"___375\"]]],\"getters\"]],[\"___377\",[\"__builtin_starred__\",\"___376\"]],[\"___378\",[\"__builtin_list__\",\"stream_ptr\",\"___377\"]],[\"args\",[\"__builtin_identity__\",\"___378\"]],[\"___379\",[\"apply\",\"so_func\",\"args\"]],[\"___380\",[\"__builtin_identity__\",\"___379\"]]],[\"__builtin_identity__\",null]]]",stop_gradient:[true]} : (vec[tensor<4x9216x192xf32>,tensor<192x768xf32>,tensor<768xf32>]) -> vec[tensor<4x9216x768xf32>]
    (%39) = "builtin.split" (%38) {stop_gradient:[true]} : (vec[tensor<4x9216x768xf32>]) -> tensor<4x9216x768xf32>
    (%40) = "pd_op.matmul" (%13, %5) {stop_gradient:[true],transpose_x:false,transpose_y:false} : (tensor<4x9216x192xf32>, tensor<192x768xf32>) -> tensor<4x9216x768xf32>
    (%41, %42) = "cinn_op.fusion" () -> tensor<4x9216x768xf32>, tensor<4x9216x768xf32> {
        (%43) = "cinn_op.broadcast" (%6) {broadcast_axes:[2],out_shape:[4,9216,768],stop_gradient:[true]} : (tensor<768xf32>) -> tensor<4x9216x768xf32>
        (%44) = "pd_op.add" (%40, %43) {stop_gradient:[true]} : (tensor<4x9216x768xf32>, tensor<4x9216x768xf32>) -> tensor<4x9216x768xf32>
        (%45) = "cinn_op.yield_store" (%44) {} : (tensor<4x9216x768xf32>) -> tensor<4x9216x768xf32>
        (%46) = "pd_op.full" () {dtype:float32,place:Place(undefined:0),shape:[4,9216,768],stop_gradient:[true],value:0.707107} : () -> tensor<4x9216x768xf32>
        (%47) = "pd_op.multiply" (%44, %46) {stop_gradient:[true]} : (tensor<4x9216x768xf32>, tensor<4x9216x768xf32>) -> tensor<4x9216x768xf32>
        (%48) = "pd_op.erf" (%47) {stop_gradient:[true]} : (tensor<4x9216x768xf32>) -> tensor<4x9216x768xf32>
        (%49) = "pd_op.full" () {dtype:float32,place:Place(undefined:0),shape:[4,9216,768],stop_gradient:[true],value:1} : () -> tensor<4x9216x768xf32>
        (%50) = "pd_op.add" (%49, %48) {stop_gradient:[true]} : (tensor<4x9216x768xf32>, tensor<4x9216x768xf32>) -> tensor<4x9216x768xf32>
        (%51) = "pd_op.full" () {dtype:float32,place:Place(undefined:0),shape:[4,9216,768],stop_gradient:[true],value:0.5} : () -> tensor<4x9216x768xf32>
        (%52) = "pd_op.multiply" (%44, %51) {stop_gradient:[true]} : (tensor<4x9216x768xf32>, tensor<4x9216x768xf32>) -> tensor<4x9216x768xf32>
        (%53) = "pd_op.multiply" (%52, %50) {stop_gradient:[true]} : (tensor<4x9216x768xf32>, tensor<4x9216x768xf32>) -> tensor<4x9216x768xf32>
        (%54) = "cinn_op.yield_store" (%53) {} : (tensor<4x9216x768xf32>) -> tensor<4x9216x768xf32>
        () = "cf.yield" (%45, %54) {} : (tensor<4x9216x768xf32>, tensor<4x9216x768xf32>) -> 
    }
    (%55) = "pd_op.matmul" (%42, %7) {stop_gradient:[true],transpose_x:false,transpose_y:false} : (tensor<4x9216x768xf32>, tensor<768x192xf32>) -> tensor<4x9216x192xf32>
    (%56, %57, %58) = "cinn_op.fusion" () -> tensor<4x9216x192xf32>, tensor<4x9216x192xf32>, tensor<4x9216x192xf32> {
        (%59) = "cinn_op.broadcast" (%8) {broadcast_axes:[2],out_shape:[4,9216,192],stop_gradient:[true]} : (tensor<192xf32>) -> tensor<4x9216x192xf32>
        (%60) = "pd_op.add" (%55, %59) {stop_gradient:[true]} : (tensor<4x9216x192xf32>, tensor<4x9216x192xf32>) -> tensor<4x9216x192xf32>
        (%61) = "cinn_op.yield_store" (%60) {} : (tensor<4x9216x192xf32>) -> tensor<4x9216x192xf32>
        (%62) = "pd_op.add" (%12, %60) {stop_gradient:[true]} : (tensor<4x9216x192xf32>, tensor<4x9216x192xf32>) -> tensor<4x9216x192xf32>
        (%63) = "cinn_op.yield_store" (%62) {} : (tensor<4x9216x192xf32>) -> tensor<4x9216x192xf32>
        (%64) = "cinn_op.reduce_sum" (%62) {axis:[2],dtype:float32,keepdim:true,stop_gradient:[true]} : (tensor<4x9216x192xf32>) -> tensor<4x9216x1xf32>
        (%65) = "pd_op.full" () {dtype:float32,place:Place(undefined:0),shape:[4,9216,1],stop_gradient:[true],value:192} : () -> tensor<4x9216x1xf32>
        (%66) = "pd_op.divide" (%64, %65) {stop_gradient:[true]} : (tensor<4x9216x1xf32>, tensor<4x9216x1xf32>) -> tensor<4x9216x1xf32>
        (%67) = "cinn_op.broadcast" (%66) {broadcast_axes:[0,1,2],out_shape:[4,9216,192],stop_gradient:[true]} : (tensor<4x9216x1xf32>) -> tensor<4x9216x192xf32>
        (%68) = "pd_op.subtract" (%62, %67) {stop_gradient:[true]} : (tensor<4x9216x192xf32>, tensor<4x9216x192xf32>) -> tensor<4x9216x192xf32>
        (%69) = "pd_op.multiply" (%68, %68) {stop_gradient:[true]} : (tensor<4x9216x192xf32>, tensor<4x9216x192xf32>) -> tensor<4x9216x192xf32>
        (%70) = "cinn_op.reduce_sum" (%69) {axis:[2],dtype:float32,keepdim:true,stop_gradient:[true]} : (tensor<4x9216x192xf32>) -> tensor<4x9216x1xf32>
        (%71) = "pd_op.full" () {dtype:float32,place:Place(undefined:0),shape:[4,9216,1],stop_gradient:[true],value:192} : () -> tensor<4x9216x1xf32>
        (%72) = "pd_op.divide" (%70, %71) {stop_gradient:[true]} : (tensor<4x9216x1xf32>, tensor<4x9216x1xf32>) -> tensor<4x9216x1xf32>
        (%73) = "pd_op.full" () {dtype:float32,place:Place(undefined:0),shape:[4,9216,1],stop_gradient:[true],value:1e-05} : () -> tensor<4x9216x1xf32>
        (%74) = "pd_op.add" (%72, %73) {stop_gradient:[true]} : (tensor<4x9216x1xf32>, tensor<4x9216x1xf32>) -> tensor<4x9216x1xf32>
        (%75) = "pd_op.rsqrt" (%74) {stop_gradient:[true]} : (tensor<4x9216x1xf32>) -> tensor<4x9216x1xf32>
        (%76) = "cinn_op.broadcast" (%75) {broadcast_axes:[0,1,2],out_shape:[4,9216,192],stop_gradient:[true]} : (tensor<4x9216x1xf32>) -> tensor<4x9216x192xf32>
        (%77) = "pd_op.multiply" (%68, %76) {stop_gradient:[true]} : (tensor<4x9216x192xf32>, tensor<4x9216x192xf32>) -> tensor<4x9216x192xf32>
        (%78) = "cinn_op.broadcast" (%9) {broadcast_axes:[2],out_shape:[4,9216,192],stop_gradient:[true]} : (tensor<192xf32>) -> tensor<4x9216x192xf32>
        (%79) = "pd_op.multiply" (%77, %78) {stop_gradient:[true]} : (tensor<4x9216x192xf32>, tensor<4x9216x192xf32>) -> tensor<4x9216x192xf32>
        (%80) = "cinn_op.broadcast" (%10) {broadcast_axes:[2],out_shape:[4,9216,192],stop_gradient:[true]} : (tensor<192xf32>) -> tensor<4x9216x192xf32>
        (%81) = "pd_op.add" (%79, %80) {stop_gradient:[true]} : (tensor<4x9216x192xf32>, tensor<4x9216x192xf32>) -> tensor<4x9216x192xf32>
        (%82) = "cinn_op.yield_store" (%81) {} : (tensor<4x9216x192xf32>) -> tensor<4x9216x192xf32>
        () = "cf.yield" (%61, %63, %82) {} : (tensor<4x9216x192xf32>, tensor<4x9216x192xf32>, tensor<4x9216x192xf32>) -> 
    }
    () = "builtin.shadow_output" (%11) {output_name:"output_0"} : (tensor<4x9216x192xf32>) -> 
    () = "builtin.shadow_output" (%12) {output_name:"output_1"} : (tensor<4x9216x192xf32>) -> 
    () = "builtin.shadow_output" (%13) {output_name:"output_2"} : (tensor<4x9216x192xf32>) -> 
    () = "builtin.shadow_output" (%40) {output_name:"output_3"} : (tensor<4x9216x768xf32>) -> 
    () = "builtin.shadow_output" (%39) {output_name:"output_4"} : (tensor<4x9216x768xf32>) -> 
    () = "builtin.shadow_output" (%42) {output_name:"output_5"} : (tensor<4x9216x768xf32>) -> 
    () = "builtin.shadow_output" (%55) {output_name:"output_6"} : (tensor<4x9216x192xf32>) -> 
    () = "builtin.shadow_output" (%56) {output_name:"output_7"} : (tensor<4x9216x192xf32>) -> 
    () = "builtin.shadow_output" (%57) {output_name:"output_8"} : (tensor<4x9216x192xf32>) -> 
    () = "builtin.shadow_output" (%58) {output_name:"output_9"} : (tensor<4x9216x192xf32>) -> 
}
I0228 19:41:16.337098 34354 add_cinn_pass.cc:340] Time of lowering and compiling program: ***** [ 0 ] ***** seconds.
I0228 19:41:16.337116 34354 add_cinn_pass.cc:344] Number of ops in the original program is: 69, after lowering it becomes: 92. (compression ratio: 92/69 = 1.33333)
I0228 19:41:16.338817 34354 build_cinn_pass.cc:68] Time of building group ops (size=0): 0 min 0 s 0 ms
I0228 19:41:16.338995 34354 add_cinn_pass.cc:326] FusionOp count before lowering : *****[ 0 ]*****
I0228 19:41:16.339006 34354 add_cinn_pass.cc:263] Enable AP Generic DRR Pass
E0228 19:41:16.339013 34354 add_cinn_pass.cc:230] before ApLowerFusionOpAbstractDrrPass:
{
}
E0228 19:41:16.339205 34354 add_cinn_pass.cc:233] after ApLowerFusionOpAbstractDrrPass:
{
}
I0228 19:41:16.339241 34354 add_cinn_pass.cc:340] Time of lowering and compiling program: ***** [ 0 ] ***** seconds.
I0228 19:41:16.339246 34354 add_cinn_pass.cc:344] Number of ops in the original program is: 0, after lowering it becomes: 0. (compression ratio: 0/0 = -nan)
I0228 19:41:16.348551 34354 pir_interpreter.cc:1604] New Executor is Running ...
I0228 19:41:16.353031 34354 pir_interpreter.cc:1628] pir interpreter is running by multi-thread mode ...
I0228 19:41:17.565650 34354 build_cinn_pass.cc:68] Time of building group ops (size=64): 0 min 0 s 2 ms
I0228 19:41:17.578058 34354 add_cinn_pass.cc:326] FusionOp count before lowering : *****[ 3 ]*****
I0228 19:41:17.578081 34354 add_cinn_pass.cc:263] Enable AP Generic DRR Pass
E0228 19:41:17.578094 34354 add_cinn_pass.cc:230] before ApLowerFusionOpAbstractDrrPass:
{
    (%0) = "pd_op.data" () {dtype:float32,name:"t0",place:Place(undefined:0),shape:[4,96,96,192],stop_gradient:[true]} : () -> tensor<4x96x96x192xf32>
    (%1) = "pd_op.data" () {dtype:int64,name:"t1",place:Place(undefined:0),shape:[3],stop_gradient:[true]} : () -> tensor<3xi64>
    (%2) = "pd_op.data" () {dtype:float32,name:"t2",place:Place(undefined:0),shape:[4,9216,192],stop_gradient:[true]} : () -> tensor<4x9216x192xf32>
    (%3) = "pd_op.data" () {dtype:float32,name:"t3",place:Place(undefined:0),shape:[192],stop_gradient:[true]} : () -> tensor<192xf32>
    (%4) = "pd_op.data" () {dtype:float32,name:"t4",place:Place(undefined:0),shape:[192],stop_gradient:[true]} : () -> tensor<192xf32>
    (%5) = "pd_op.data" () {dtype:float32,name:"t5",place:Place(undefined:0),shape:[192,768],stop_gradient:[true]} : () -> tensor<192x768xf32>
    (%6) = "pd_op.data" () {dtype:float32,name:"t6",place:Place(undefined:0),shape:[768],stop_gradient:[true]} : () -> tensor<768xf32>
    (%7) = "pd_op.data" () {dtype:float32,name:"t7",place:Place(undefined:0),shape:[768,192],stop_gradient:[true]} : () -> tensor<768x192xf32>
    (%8) = "pd_op.data" () {dtype:float32,name:"t8",place:Place(undefined:0),shape:[192],stop_gradient:[true]} : () -> tensor<192xf32>
    (%9) = "pd_op.data" () {dtype:float32,name:"t9",place:Place(undefined:0),shape:[192],stop_gradient:[true]} : () -> tensor<192xf32>
    (%10) = "pd_op.data" () {dtype:float32,name:"t10",place:Place(undefined:0),shape:[192],stop_gradient:[true]} : () -> tensor<192xf32>
    (%11, %12, %13) = "cinn_op.fusion" () -> tensor<4x9216x192xf32>, tensor<4x9216x192xf32>, tensor<4x9216x192xf32> {
        (%14) = "cinn_op.reshape" (%0) {shape:[4,9216,192],stop_gradient:[true]} : (tensor<4x96x96x192xf32>) -> tensor<4x9216x192xf32>
        (%15) = "cinn_op.yield_store" (%14) {} : (tensor<4x9216x192xf32>) -> tensor<4x9216x192xf32>
        (%16) = "pd_op.add" (%2, %14) {stop_gradient:[true]} : (tensor<4x9216x192xf32>, tensor<4x9216x192xf32>) -> tensor<4x9216x192xf32>
        (%17) = "cinn_op.yield_store" (%16) {} : (tensor<4x9216x192xf32>) -> tensor<4x9216x192xf32>
        (%18) = "cinn_op.reduce_sum" (%16) {axis:[2],dtype:float32,keepdim:true,stop_gradient:[true]} : (tensor<4x9216x192xf32>) -> tensor<4x9216x1xf32>
        (%19) = "pd_op.full" () {dtype:float32,place:Place(undefined:0),shape:[4,9216,1],stop_gradient:[true],value:192} : () -> tensor<4x9216x1xf32>
        (%20) = "pd_op.divide" (%18, %19) {stop_gradient:[true]} : (tensor<4x9216x1xf32>, tensor<4x9216x1xf32>) -> tensor<4x9216x1xf32>
        (%21) = "cinn_op.broadcast" (%20) {broadcast_axes:[0,1,2],out_shape:[4,9216,192],stop_gradient:[true]} : (tensor<4x9216x1xf32>) -> tensor<4x9216x192xf32>
        (%22) = "pd_op.subtract" (%16, %21) {stop_gradient:[true]} : (tensor<4x9216x192xf32>, tensor<4x9216x192xf32>) -> tensor<4x9216x192xf32>
        (%23) = "pd_op.multiply" (%22, %22) {stop_gradient:[true]} : (tensor<4x9216x192xf32>, tensor<4x9216x192xf32>) -> tensor<4x9216x192xf32>
        (%24) = "cinn_op.reduce_sum" (%23) {axis:[2],dtype:float32,keepdim:true,stop_gradient:[true]} : (tensor<4x9216x192xf32>) -> tensor<4x9216x1xf32>
        (%25) = "pd_op.full" () {dtype:float32,place:Place(undefined:0),shape:[4,9216,1],stop_gradient:[true],value:192} : () -> tensor<4x9216x1xf32>
        (%26) = "pd_op.divide" (%24, %25) {stop_gradient:[true]} : (tensor<4x9216x1xf32>, tensor<4x9216x1xf32>) -> tensor<4x9216x1xf32>
        (%27) = "pd_op.full" () {dtype:float32,place:Place(undefined:0),shape:[4,9216,1],stop_gradient:[true],value:1e-05} : () -> tensor<4x9216x1xf32>
        (%28) = "pd_op.add" (%26, %27) {stop_gradient:[true]} : (tensor<4x9216x1xf32>, tensor<4x9216x1xf32>) -> tensor<4x9216x1xf32>
        (%29) = "pd_op.rsqrt" (%28) {stop_gradient:[true]} : (tensor<4x9216x1xf32>) -> tensor<4x9216x1xf32>
        (%30) = "cinn_op.broadcast" (%29) {broadcast_axes:[0,1,2],out_shape:[4,9216,192],stop_gradient:[true]} : (tensor<4x9216x1xf32>) -> tensor<4x9216x192xf32>
        (%31) = "pd_op.multiply" (%22, %30) {stop_gradient:[true]} : (tensor<4x9216x192xf32>, tensor<4x9216x192xf32>) -> tensor<4x9216x192xf32>
        (%32) = "cinn_op.broadcast" (%3) {broadcast_axes:[2],out_shape:[4,9216,192],stop_gradient:[true]} : (tensor<192xf32>) -> tensor<4x9216x192xf32>
        (%33) = "pd_op.multiply" (%31, %32) {stop_gradient:[true]} : (tensor<4x9216x192xf32>, tensor<4x9216x192xf32>) -> tensor<4x9216x192xf32>
        (%34) = "cinn_op.broadcast" (%4) {broadcast_axes:[2],out_shape:[4,9216,192],stop_gradient:[true]} : (tensor<192xf32>) -> tensor<4x9216x192xf32>
        (%35) = "pd_op.add" (%33, %34) {stop_gradient:[true]} : (tensor<4x9216x192xf32>, tensor<4x9216x192xf32>) -> tensor<4x9216x192xf32>
        (%36) = "cinn_op.yield_store" (%35) {} : (tensor<4x9216x192xf32>) -> tensor<4x9216x192xf32>
        () = "cf.yield" (%15, %17, %36) {} : (tensor<4x9216x192xf32>, tensor<4x9216x192xf32>, tensor<4x9216x192xf32>) -> 
    }
    (%37) = "pd_op.matmul" (%13, %5) {stop_gradient:[true],transpose_x:false,transpose_y:false} : (tensor<4x9216x192xf32>, tensor<192x768xf32>) -> tensor<4x9216x768xf32>
    (%38, %39) = "cinn_op.fusion" () -> tensor<4x9216x768xf32>, tensor<4x9216x768xf32> {
        (%40) = "cinn_op.broadcast" (%6) {broadcast_axes:[2],out_shape:[4,9216,768],stop_gradient:[true]} : (tensor<768xf32>) -> tensor<4x9216x768xf32>
        (%41) = "pd_op.add" (%37, %40) {stop_gradient:[true]} : (tensor<4x9216x768xf32>, tensor<4x9216x768xf32>) -> tensor<4x9216x768xf32>
        (%42) = "cinn_op.yield_store" (%41) {} : (tensor<4x9216x768xf32>) -> tensor<4x9216x768xf32>
        (%43) = "pd_op.full" () {dtype:float32,place:Place(undefined:0),shape:[4,9216,768],stop_gradient:[true],value:0.707107} : () -> tensor<4x9216x768xf32>
        (%44) = "pd_op.multiply" (%41, %43) {stop_gradient:[true]} : (tensor<4x9216x768xf32>, tensor<4x9216x768xf32>) -> tensor<4x9216x768xf32>
        (%45) = "pd_op.erf" (%44) {stop_gradient:[true]} : (tensor<4x9216x768xf32>) -> tensor<4x9216x768xf32>
        (%46) = "pd_op.full" () {dtype:float32,place:Place(undefined:0),shape:[4,9216,768],stop_gradient:[true],value:1} : () -> tensor<4x9216x768xf32>
        (%47) = "pd_op.add" (%46, %45) {stop_gradient:[true]} : (tensor<4x9216x768xf32>, tensor<4x9216x768xf32>) -> tensor<4x9216x768xf32>
        (%48) = "pd_op.full" () {dtype:float32,place:Place(undefined:0),shape:[4,9216,768],stop_gradient:[true],value:0.5} : () -> tensor<4x9216x768xf32>
        (%49) = "pd_op.multiply" (%41, %48) {stop_gradient:[true]} : (tensor<4x9216x768xf32>, tensor<4x9216x768xf32>) -> tensor<4x9216x768xf32>
        (%50) = "pd_op.multiply" (%49, %47) {stop_gradient:[true]} : (tensor<4x9216x768xf32>, tensor<4x9216x768xf32>) -> tensor<4x9216x768xf32>
        (%51) = "cinn_op.yield_store" (%50) {} : (tensor<4x9216x768xf32>) -> tensor<4x9216x768xf32>
        () = "cf.yield" (%42, %51) {} : (tensor<4x9216x768xf32>, tensor<4x9216x768xf32>) -> 
    }
    (%52) = "pd_op.matmul" (%39, %7) {stop_gradient:[true],transpose_x:false,transpose_y:false} : (tensor<4x9216x768xf32>, tensor<768x192xf32>) -> tensor<4x9216x192xf32>
    (%53, %54, %55) = "cinn_op.fusion" () -> tensor<4x9216x192xf32>, tensor<4x9216x192xf32>, tensor<4x9216x192xf32> {
        (%56) = "cinn_op.broadcast" (%8) {broadcast_axes:[2],out_shape:[4,9216,192],stop_gradient:[true]} : (tensor<192xf32>) -> tensor<4x9216x192xf32>
        (%57) = "pd_op.add" (%52, %56) {stop_gradient:[true]} : (tensor<4x9216x192xf32>, tensor<4x9216x192xf32>) -> tensor<4x9216x192xf32>
        (%58) = "cinn_op.yield_store" (%57) {} : (tensor<4x9216x192xf32>) -> tensor<4x9216x192xf32>
        (%59) = "pd_op.add" (%12, %57) {stop_gradient:[true]} : (tensor<4x9216x192xf32>, tensor<4x9216x192xf32>) -> tensor<4x9216x192xf32>
        (%60) = "cinn_op.yield_store" (%59) {} : (tensor<4x9216x192xf32>) -> tensor<4x9216x192xf32>
        (%61) = "cinn_op.reduce_sum" (%59) {axis:[2],dtype:float32,keepdim:true,stop_gradient:[true]} : (tensor<4x9216x192xf32>) -> tensor<4x9216x1xf32>
        (%62) = "pd_op.full" () {dtype:float32,place:Place(undefined:0),shape:[4,9216,1],stop_gradient:[true],value:192} : () -> tensor<4x9216x1xf32>
        (%63) = "pd_op.divide" (%61, %62) {stop_gradient:[true]} : (tensor<4x9216x1xf32>, tensor<4x9216x1xf32>) -> tensor<4x9216x1xf32>
        (%64) = "cinn_op.broadcast" (%63) {broadcast_axes:[0,1,2],out_shape:[4,9216,192],stop_gradient:[true]} : (tensor<4x9216x1xf32>) -> tensor<4x9216x192xf32>
        (%65) = "pd_op.subtract" (%59, %64) {stop_gradient:[true]} : (tensor<4x9216x192xf32>, tensor<4x9216x192xf32>) -> tensor<4x9216x192xf32>
        (%66) = "pd_op.multiply" (%65, %65) {stop_gradient:[true]} : (tensor<4x9216x192xf32>, tensor<4x9216x192xf32>) -> tensor<4x9216x192xf32>
        (%67) = "cinn_op.reduce_sum" (%66) {axis:[2],dtype:float32,keepdim:true,stop_gradient:[true]} : (tensor<4x9216x192xf32>) -> tensor<4x9216x1xf32>
        (%68) = "pd_op.full" () {dtype:float32,place:Place(undefined:0),shape:[4,9216,1],stop_gradient:[true],value:192} : () -> tensor<4x9216x1xf32>
        (%69) = "pd_op.divide" (%67, %68) {stop_gradient:[true]} : (tensor<4x9216x1xf32>, tensor<4x9216x1xf32>) -> tensor<4x9216x1xf32>
        (%70) = "pd_op.full" () {dtype:float32,place:Place(undefined:0),shape:[4,9216,1],stop_gradient:[true],value:1e-05} : () -> tensor<4x9216x1xf32>
        (%71) = "pd_op.add" (%69, %70) {stop_gradient:[true]} : (tensor<4x9216x1xf32>, tensor<4x9216x1xf32>) -> tensor<4x9216x1xf32>
        (%72) = "pd_op.rsqrt" (%71) {stop_gradient:[true]} : (tensor<4x9216x1xf32>) -> tensor<4x9216x1xf32>
        (%73) = "cinn_op.broadcast" (%72) {broadcast_axes:[0,1,2],out_shape:[4,9216,192],stop_gradient:[true]} : (tensor<4x9216x1xf32>) -> tensor<4x9216x192xf32>
        (%74) = "pd_op.multiply" (%65, %73) {stop_gradient:[true]} : (tensor<4x9216x192xf32>, tensor<4x9216x192xf32>) -> tensor<4x9216x192xf32>
        (%75) = "cinn_op.broadcast" (%9) {broadcast_axes:[2],out_shape:[4,9216,192],stop_gradient:[true]} : (tensor<192xf32>) -> tensor<4x9216x192xf32>
        (%76) = "pd_op.multiply" (%74, %75) {stop_gradient:[true]} : (tensor<4x9216x192xf32>, tensor<4x9216x192xf32>) -> tensor<4x9216x192xf32>
        (%77) = "cinn_op.broadcast" (%10) {broadcast_axes:[2],out_shape:[4,9216,192],stop_gradient:[true]} : (tensor<192xf32>) -> tensor<4x9216x192xf32>
        (%78) = "pd_op.add" (%76, %77) {stop_gradient:[true]} : (tensor<4x9216x192xf32>, tensor<4x9216x192xf32>) -> tensor<4x9216x192xf32>
        (%79) = "cinn_op.yield_store" (%78) {} : (tensor<4x9216x192xf32>) -> tensor<4x9216x192xf32>
        () = "cf.yield" (%58, %60, %79) {} : (tensor<4x9216x192xf32>, tensor<4x9216x192xf32>, tensor<4x9216x192xf32>) -> 
    }
    () = "builtin.shadow_output" (%11) {output_name:"output_0"} : (tensor<4x9216x192xf32>) -> 
    () = "builtin.shadow_output" (%12) {output_name:"output_1"} : (tensor<4x9216x192xf32>) -> 
    () = "builtin.shadow_output" (%13) {output_name:"output_2"} : (tensor<4x9216x192xf32>) -> 
    () = "builtin.shadow_output" (%37) {output_name:"output_3"} : (tensor<4x9216x768xf32>) -> 
    () = "builtin.shadow_output" (%38) {output_name:"output_4"} : (tensor<4x9216x768xf32>) -> 
    () = "builtin.shadow_output" (%39) {output_name:"output_5"} : (tensor<4x9216x768xf32>) -> 
    () = "builtin.shadow_output" (%52) {output_name:"output_6"} : (tensor<4x9216x192xf32>) -> 
    () = "builtin.shadow_output" (%53) {output_name:"output_7"} : (tensor<4x9216x192xf32>) -> 
    () = "builtin.shadow_output" (%54) {output_name:"output_8"} : (tensor<4x9216x192xf32>) -> 
    () = "builtin.shadow_output" (%55) {output_name:"output_9"} : (tensor<4x9216x192xf32>) -> 
}
E0228 19:41:17.578945 34354 ap_lower_fusion_op_pass.cc:2279] 
Traceback (most recent call last):
  File "/work/Paddle/paddle/ap/src/paddle/pass/ap_lower_fusion_op_pass.cc", line 2294, in operator()
    GetMatchCtx(op)
  File "/work/Paddle/paddle/ap/src/paddle/pass/ap_lower_fusion_op_pass.cc", line 1792, in operator()
    ConstraintApplier{}.Match(ctx_.drr_ctx, opt_graph_match_ctx.value())
  File "/work/Paddle/paddle/ap/src/paddle/pass/ap_lower_fusion_op_pass.cc", line 1622, in operator()
    ap_drr_helper.Interpret(constraint_func, args)
  File "/work/Paddle/paddle/ap/include/axpr/cps_interpreter.h", line 69, in operator()
    InterpretComposedCallUntilHalt(&composed_call)
  File "/work/Paddle/paddle/ap/include/axpr/cps_interpreter.h", line 101, in operator()
    InterpretComposedCall(composed_call)
  File "/work/Paddle/paddle/ap/include/axpr/cps_interpreter.h", line 400, in operator()
    MakeCallEnvironment(closure->environment)
  File "/work/Paddle/paddle/ap/include/axpr/cps_interpreter.h", line 643, in operator()
    adt::WeakPtrLock(circlable_ref_list())

RuntimeError: weak_ptr.lock() failed.
pass_name: matmul_binary_fusion
E0228 19:41:17.579092 34354 ap_lower_fusion_op_pass.cc:2279] 
Traceback (most recent call last):
  File "/work/Paddle/paddle/ap/src/paddle/pass/ap_lower_fusion_op_pass.cc", line 2294, in operator()
    GetMatchCtx(op)
  File "/work/Paddle/paddle/ap/src/paddle/pass/ap_lower_fusion_op_pass.cc", line 1765, in operator()
    graph_matcher.UpdateByConnectionsUntilDone( &opt_graph_match_ctx.value(), drr_op_result_anchor)
  File "/work/Paddle/paddle/ap/include/ir_match/graph_matcher.h", line 63, in operator()
    Solve((*ctx)->topo_match_ctx, anchor_node)
  File "/work/Paddle/paddle/ap/include/ir_match/graph_matcher.h", line 99, in operator()
    topo_matcher_.UpdateByConnectionsUntilDone( &*topo_match_ctx, anchor_node)
  File "/work/Paddle/paddle/ap/include/ir_match/topo_matcher.h", line 59, in operator()
    UpdateAllByConnections(ctx, anchor_node)
  File "/work/Paddle/paddle/ap/include/ir_match/topo_matcher.h", line 220, in operator()
    ptn_bfs_walker(anchor_node, Update)
  File "/work/Paddle/paddle/ap/include/adt/bfs_walker.h", line 64, in operator()
    NodeHandler(node)
  File "/work/Paddle/paddle/ap/include/ir_match/topo_matcher.h", line 215, in operator()
    TopoMatchCtxInitNode(match_ctx, sg_node)
  File "/work/Paddle/paddle/ap/include/ir_match/topo_matcher.h", line 283, in operator()
    ForEachInitedDownstream(*ctx, sg_node, InitOrUpdate)
  File "/work/Paddle/paddle/ap/include/graph/node_list.h", line 106, in operator()
    DoEach(data)
  File "/work/Paddle/paddle/ap/include/ir_match/topo_matcher.h", line 272, in operator()
    ctx->InitBigGraphNodes(sg_node, bg_nodes)
  File "/work/Paddle/paddle/ap/include/ir_match/topo_match_ctx.h", line 102, in operator()
    !val.empty()

MismatchError: TopoMatchCtxImpl::InitBigGraphNodes: sg_node should not be matched to empty.
pass_name: matmul_trinary_fusion
E0228 19:41:17.579444 34354 ap_lower_fusion_op_pass.cc:2279] 
Traceback (most recent call last):
  File "/work/Paddle/paddle/ap/src/paddle/pass/ap_lower_fusion_op_pass.cc", line 2294, in operator()
    GetMatchCtx(op)
  File "/work/Paddle/paddle/ap/src/paddle/pass/ap_lower_fusion_op_pass.cc", line 1792, in operator()
    ConstraintApplier{}.Match(ctx_.drr_ctx, opt_graph_match_ctx.value())
  File "/work/Paddle/paddle/ap/src/paddle/pass/ap_lower_fusion_op_pass.cc", line 1622, in operator()
    ap_drr_helper.Interpret(constraint_func, args)
  File "/work/Paddle/paddle/ap/include/axpr/cps_interpreter.h", line 69, in operator()
    InterpretComposedCallUntilHalt(&composed_call)
  File "/work/Paddle/paddle/ap/include/axpr/cps_interpreter.h", line 101, in operator()
    InterpretComposedCall(composed_call)
  File "/work/Paddle/paddle/ap/include/axpr/cps_interpreter.h", line 400, in operator()
    MakeCallEnvironment(closure->environment)
  File "/work/Paddle/paddle/ap/include/axpr/cps_interpreter.h", line 643, in operator()
    adt::WeakPtrLock(circlable_ref_list())

RuntimeError: weak_ptr.lock() failed.
pass_name: matmul_binary_fusion
E0228 19:41:17.579918 34354 ap_lower_fusion_op_pass.cc:2279] 
Traceback (most recent call last):
  File "/work/Paddle/paddle/ap/src/paddle/pass/ap_lower_fusion_op_pass.cc", line 2294, in operator()
    GetMatchCtx(op)
  File "/work/Paddle/paddle/ap/src/paddle/pass/ap_lower_fusion_op_pass.cc", line 1792, in operator()
    ConstraintApplier{}.Match(ctx_.drr_ctx, opt_graph_match_ctx.value())
  File "/work/Paddle/paddle/ap/src/paddle/pass/ap_lower_fusion_op_pass.cc", line 1622, in operator()
    ap_drr_helper.Interpret(constraint_func, args)
  File "/work/Paddle/paddle/ap/include/axpr/cps_interpreter.h", line 69, in operator()
    InterpretComposedCallUntilHalt(&composed_call)
  File "/work/Paddle/paddle/ap/include/axpr/cps_interpreter.h", line 101, in operator()
    InterpretComposedCall(composed_call)
  File "/work/Paddle/paddle/ap/include/axpr/cps_interpreter.h", line 400, in operator()
    MakeCallEnvironment(closure->environment)
  File "/work/Paddle/paddle/ap/include/axpr/cps_interpreter.h", line 643, in operator()
    adt::WeakPtrLock(circlable_ref_list())

RuntimeError: weak_ptr.lock() failed.
pass_name: matmul_trinary_fusion
E0228 19:41:17.580123 34354 add_cinn_pass.cc:233] after ApLowerFusionOpAbstractDrrPass:
{
    (%0) = "pd_op.data" () {dtype:float32,name:"t0",place:Place(undefined:0),shape:[4,96,96,192],stop_gradient:[true]} : () -> tensor<4x96x96x192xf32>
    (%1) = "pd_op.data" () {dtype:int64,name:"t1",place:Place(undefined:0),shape:[3],stop_gradient:[true]} : () -> tensor<3xi64>
    (%2) = "pd_op.data" () {dtype:float32,name:"t2",place:Place(undefined:0),shape:[4,9216,192],stop_gradient:[true]} : () -> tensor<4x9216x192xf32>
    (%3) = "pd_op.data" () {dtype:float32,name:"t3",place:Place(undefined:0),shape:[192],stop_gradient:[true]} : () -> tensor<192xf32>
    (%4) = "pd_op.data" () {dtype:float32,name:"t4",place:Place(undefined:0),shape:[192],stop_gradient:[true]} : () -> tensor<192xf32>
    (%5) = "pd_op.data" () {dtype:float32,name:"t5",place:Place(undefined:0),shape:[192,768],stop_gradient:[true]} : () -> tensor<192x768xf32>
    (%6) = "pd_op.data" () {dtype:float32,name:"t6",place:Place(undefined:0),shape:[768],stop_gradient:[true]} : () -> tensor<768xf32>
    (%7) = "pd_op.data" () {dtype:float32,name:"t7",place:Place(undefined:0),shape:[768,192],stop_gradient:[true]} : () -> tensor<768x192xf32>
    (%8) = "pd_op.data" () {dtype:float32,name:"t8",place:Place(undefined:0),shape:[192],stop_gradient:[true]} : () -> tensor<192xf32>
    (%9) = "pd_op.data" () {dtype:float32,name:"t9",place:Place(undefined:0),shape:[192],stop_gradient:[true]} : () -> tensor<192xf32>
    (%10) = "pd_op.data" () {dtype:float32,name:"t10",place:Place(undefined:0),shape:[192],stop_gradient:[true]} : () -> tensor<192xf32>
    (%11, %12, %13) = "cinn_op.fusion" () -> tensor<4x9216x192xf32>, tensor<4x9216x192xf32>, tensor<4x9216x192xf32> {
        (%14) = "cinn_op.reshape" (%0) {shape:[4,9216,192],stop_gradient:[true]} : (tensor<4x96x96x192xf32>) -> tensor<4x9216x192xf32>
        (%15) = "cinn_op.yield_store" (%14) {} : (tensor<4x9216x192xf32>) -> tensor<4x9216x192xf32>
        (%16) = "pd_op.add" (%2, %14) {stop_gradient:[true]} : (tensor<4x9216x192xf32>, tensor<4x9216x192xf32>) -> tensor<4x9216x192xf32>
        (%17) = "cinn_op.yield_store" (%16) {} : (tensor<4x9216x192xf32>) -> tensor<4x9216x192xf32>
        (%18) = "cinn_op.reduce_sum" (%16) {axis:[2],dtype:float32,keepdim:true,stop_gradient:[true]} : (tensor<4x9216x192xf32>) -> tensor<4x9216x1xf32>
        (%19) = "pd_op.full" () {dtype:float32,place:Place(undefined:0),shape:[4,9216,1],stop_gradient:[true],value:192} : () -> tensor<4x9216x1xf32>
        (%20) = "pd_op.divide" (%18, %19) {stop_gradient:[true]} : (tensor<4x9216x1xf32>, tensor<4x9216x1xf32>) -> tensor<4x9216x1xf32>
        (%21) = "cinn_op.broadcast" (%20) {broadcast_axes:[0,1,2],out_shape:[4,9216,192],stop_gradient:[true]} : (tensor<4x9216x1xf32>) -> tensor<4x9216x192xf32>
        (%22) = "pd_op.subtract" (%16, %21) {stop_gradient:[true]} : (tensor<4x9216x192xf32>, tensor<4x9216x192xf32>) -> tensor<4x9216x192xf32>
        (%23) = "pd_op.multiply" (%22, %22) {stop_gradient:[true]} : (tensor<4x9216x192xf32>, tensor<4x9216x192xf32>) -> tensor<4x9216x192xf32>
        (%24) = "cinn_op.reduce_sum" (%23) {axis:[2],dtype:float32,keepdim:true,stop_gradient:[true]} : (tensor<4x9216x192xf32>) -> tensor<4x9216x1xf32>
        (%25) = "pd_op.full" () {dtype:float32,place:Place(undefined:0),shape:[4,9216,1],stop_gradient:[true],value:192} : () -> tensor<4x9216x1xf32>
        (%26) = "pd_op.divide" (%24, %25) {stop_gradient:[true]} : (tensor<4x9216x1xf32>, tensor<4x9216x1xf32>) -> tensor<4x9216x1xf32>
        (%27) = "pd_op.full" () {dtype:float32,place:Place(undefined:0),shape:[4,9216,1],stop_gradient:[true],value:1e-05} : () -> tensor<4x9216x1xf32>
        (%28) = "pd_op.add" (%26, %27) {stop_gradient:[true]} : (tensor<4x9216x1xf32>, tensor<4x9216x1xf32>) -> tensor<4x9216x1xf32>
        (%29) = "pd_op.rsqrt" (%28) {stop_gradient:[true]} : (tensor<4x9216x1xf32>) -> tensor<4x9216x1xf32>
        (%30) = "cinn_op.broadcast" (%29) {broadcast_axes:[0,1,2],out_shape:[4,9216,192],stop_gradient:[true]} : (tensor<4x9216x1xf32>) -> tensor<4x9216x192xf32>
        (%31) = "pd_op.multiply" (%22, %30) {stop_gradient:[true]} : (tensor<4x9216x192xf32>, tensor<4x9216x192xf32>) -> tensor<4x9216x192xf32>
        (%32) = "cinn_op.broadcast" (%3) {broadcast_axes:[2],out_shape:[4,9216,192],stop_gradient:[true]} : (tensor<192xf32>) -> tensor<4x9216x192xf32>
        (%33) = "pd_op.multiply" (%31, %32) {stop_gradient:[true]} : (tensor<4x9216x192xf32>, tensor<4x9216x192xf32>) -> tensor<4x9216x192xf32>
        (%34) = "cinn_op.broadcast" (%4) {broadcast_axes:[2],out_shape:[4,9216,192],stop_gradient:[true]} : (tensor<192xf32>) -> tensor<4x9216x192xf32>
        (%35) = "pd_op.add" (%33, %34) {stop_gradient:[true]} : (tensor<4x9216x192xf32>, tensor<4x9216x192xf32>) -> tensor<4x9216x192xf32>
        (%36) = "cinn_op.yield_store" (%35) {} : (tensor<4x9216x192xf32>) -> tensor<4x9216x192xf32>
        () = "cf.yield" (%15, %17, %36) {} : (tensor<4x9216x192xf32>, tensor<4x9216x192xf32>, tensor<4x9216x192xf32>) -> 
    }
    (%37) = "pd_op.matmul" (%13, %5) {stop_gradient:[true],transpose_x:false,transpose_y:false} : (tensor<4x9216x192xf32>, tensor<192x768xf32>) -> tensor<4x9216x768xf32>
    (%38, %39) = "cinn_op.fusion" () -> tensor<4x9216x768xf32>, tensor<4x9216x768xf32> {
        (%40) = "cinn_op.broadcast" (%6) {broadcast_axes:[2],out_shape:[4,9216,768],stop_gradient:[true]} : (tensor<768xf32>) -> tensor<4x9216x768xf32>
        (%41) = "pd_op.add" (%37, %40) {stop_gradient:[true]} : (tensor<4x9216x768xf32>, tensor<4x9216x768xf32>) -> tensor<4x9216x768xf32>
        (%42) = "cinn_op.yield_store" (%41) {} : (tensor<4x9216x768xf32>) -> tensor<4x9216x768xf32>
        (%43) = "pd_op.full" () {dtype:float32,place:Place(undefined:0),shape:[4,9216,768],stop_gradient:[true],value:0.707107} : () -> tensor<4x9216x768xf32>
        (%44) = "pd_op.multiply" (%41, %43) {stop_gradient:[true]} : (tensor<4x9216x768xf32>, tensor<4x9216x768xf32>) -> tensor<4x9216x768xf32>
        (%45) = "pd_op.erf" (%44) {stop_gradient:[true]} : (tensor<4x9216x768xf32>) -> tensor<4x9216x768xf32>
        (%46) = "pd_op.full" () {dtype:float32,place:Place(undefined:0),shape:[4,9216,768],stop_gradient:[true],value:1} : () -> tensor<4x9216x768xf32>
        (%47) = "pd_op.add" (%46, %45) {stop_gradient:[true]} : (tensor<4x9216x768xf32>, tensor<4x9216x768xf32>) -> tensor<4x9216x768xf32>
        (%48) = "pd_op.full" () {dtype:float32,place:Place(undefined:0),shape:[4,9216,768],stop_gradient:[true],value:0.5} : () -> tensor<4x9216x768xf32>
        (%49) = "pd_op.multiply" (%41, %48) {stop_gradient:[true]} : (tensor<4x9216x768xf32>, tensor<4x9216x768xf32>) -> tensor<4x9216x768xf32>
        (%50) = "pd_op.multiply" (%49, %47) {stop_gradient:[true]} : (tensor<4x9216x768xf32>, tensor<4x9216x768xf32>) -> tensor<4x9216x768xf32>
        (%51) = "cinn_op.yield_store" (%50) {} : (tensor<4x9216x768xf32>) -> tensor<4x9216x768xf32>
        () = "cf.yield" (%42, %51) {} : (tensor<4x9216x768xf32>, tensor<4x9216x768xf32>) -> 
    }
    (%52) = "pd_op.matmul" (%39, %7) {stop_gradient:[true],transpose_x:false,transpose_y:false} : (tensor<4x9216x768xf32>, tensor<768x192xf32>) -> tensor<4x9216x192xf32>
    (%53, %54, %55) = "cinn_op.fusion" () -> tensor<4x9216x192xf32>, tensor<4x9216x192xf32>, tensor<4x9216x192xf32> {
        (%56) = "cinn_op.broadcast" (%8) {broadcast_axes:[2],out_shape:[4,9216,192],stop_gradient:[true]} : (tensor<192xf32>) -> tensor<4x9216x192xf32>
        (%57) = "pd_op.add" (%52, %56) {stop_gradient:[true]} : (tensor<4x9216x192xf32>, tensor<4x9216x192xf32>) -> tensor<4x9216x192xf32>
        (%58) = "cinn_op.yield_store" (%57) {} : (tensor<4x9216x192xf32>) -> tensor<4x9216x192xf32>
        (%59) = "pd_op.add" (%12, %57) {stop_gradient:[true]} : (tensor<4x9216x192xf32>, tensor<4x9216x192xf32>) -> tensor<4x9216x192xf32>
        (%60) = "cinn_op.yield_store" (%59) {} : (tensor<4x9216x192xf32>) -> tensor<4x9216x192xf32>
        (%61) = "cinn_op.reduce_sum" (%59) {axis:[2],dtype:float32,keepdim:true,stop_gradient:[true]} : (tensor<4x9216x192xf32>) -> tensor<4x9216x1xf32>
        (%62) = "pd_op.full" () {dtype:float32,place:Place(undefined:0),shape:[4,9216,1],stop_gradient:[true],value:192} : () -> tensor<4x9216x1xf32>
        (%63) = "pd_op.divide" (%61, %62) {stop_gradient:[true]} : (tensor<4x9216x1xf32>, tensor<4x9216x1xf32>) -> tensor<4x9216x1xf32>
        (%64) = "cinn_op.broadcast" (%63) {broadcast_axes:[0,1,2],out_shape:[4,9216,192],stop_gradient:[true]} : (tensor<4x9216x1xf32>) -> tensor<4x9216x192xf32>
        (%65) = "pd_op.subtract" (%59, %64) {stop_gradient:[true]} : (tensor<4x9216x192xf32>, tensor<4x9216x192xf32>) -> tensor<4x9216x192xf32>
        (%66) = "pd_op.multiply" (%65, %65) {stop_gradient:[true]} : (tensor<4x9216x192xf32>, tensor<4x9216x192xf32>) -> tensor<4x9216x192xf32>
        (%67) = "cinn_op.reduce_sum" (%66) {axis:[2],dtype:float32,keepdim:true,stop_gradient:[true]} : (tensor<4x9216x192xf32>) -> tensor<4x9216x1xf32>
        (%68) = "pd_op.full" () {dtype:float32,place:Place(undefined:0),shape:[4,9216,1],stop_gradient:[true],value:192} : () -> tensor<4x9216x1xf32>
        (%69) = "pd_op.divide" (%67, %68) {stop_gradient:[true]} : (tensor<4x9216x1xf32>, tensor<4x9216x1xf32>) -> tensor<4x9216x1xf32>
        (%70) = "pd_op.full" () {dtype:float32,place:Place(undefined:0),shape:[4,9216,1],stop_gradient:[true],value:1e-05} : () -> tensor<4x9216x1xf32>
        (%71) = "pd_op.add" (%69, %70) {stop_gradient:[true]} : (tensor<4x9216x1xf32>, tensor<4x9216x1xf32>) -> tensor<4x9216x1xf32>
        (%72) = "pd_op.rsqrt" (%71) {stop_gradient:[true]} : (tensor<4x9216x1xf32>) -> tensor<4x9216x1xf32>
        (%73) = "cinn_op.broadcast" (%72) {broadcast_axes:[0,1,2],out_shape:[4,9216,192],stop_gradient:[true]} : (tensor<4x9216x1xf32>) -> tensor<4x9216x192xf32>
        (%74) = "pd_op.multiply" (%65, %73) {stop_gradient:[true]} : (tensor<4x9216x192xf32>, tensor<4x9216x192xf32>) -> tensor<4x9216x192xf32>
        (%75) = "cinn_op.broadcast" (%9) {broadcast_axes:[2],out_shape:[4,9216,192],stop_gradient:[true]} : (tensor<192xf32>) -> tensor<4x9216x192xf32>
        (%76) = "pd_op.multiply" (%74, %75) {stop_gradient:[true]} : (tensor<4x9216x192xf32>, tensor<4x9216x192xf32>) -> tensor<4x9216x192xf32>
        (%77) = "cinn_op.broadcast" (%10) {broadcast_axes:[2],out_shape:[4,9216,192],stop_gradient:[true]} : (tensor<192xf32>) -> tensor<4x9216x192xf32>
        (%78) = "pd_op.add" (%76, %77) {stop_gradient:[true]} : (tensor<4x9216x192xf32>, tensor<4x9216x192xf32>) -> tensor<4x9216x192xf32>
        (%79) = "cinn_op.yield_store" (%78) {} : (tensor<4x9216x192xf32>) -> tensor<4x9216x192xf32>
        () = "cf.yield" (%58, %60, %79) {} : (tensor<4x9216x192xf32>, tensor<4x9216x192xf32>, tensor<4x9216x192xf32>) -> 
    }
    () = "builtin.shadow_output" (%11) {output_name:"output_0"} : (tensor<4x9216x192xf32>) -> 
    () = "builtin.shadow_output" (%12) {output_name:"output_1"} : (tensor<4x9216x192xf32>) -> 
    () = "builtin.shadow_output" (%13) {output_name:"output_2"} : (tensor<4x9216x192xf32>) -> 
    () = "builtin.shadow_output" (%37) {output_name:"output_3"} : (tensor<4x9216x768xf32>) -> 
    () = "builtin.shadow_output" (%38) {output_name:"output_4"} : (tensor<4x9216x768xf32>) -> 
    () = "builtin.shadow_output" (%39) {output_name:"output_5"} : (tensor<4x9216x768xf32>) -> 
    () = "builtin.shadow_output" (%52) {output_name:"output_6"} : (tensor<4x9216x192xf32>) -> 
    () = "builtin.shadow_output" (%53) {output_name:"output_7"} : (tensor<4x9216x192xf32>) -> 
    () = "builtin.shadow_output" (%54) {output_name:"output_8"} : (tensor<4x9216x192xf32>) -> 
    () = "builtin.shadow_output" (%55) {output_name:"output_9"} : (tensor<4x9216x192xf32>) -> 
}
I0228 19:41:17.580936 34354 add_cinn_pass.cc:340] Time of lowering and compiling program: ***** [ 0 ] ***** seconds.
I0228 19:41:17.580948 34354 add_cinn_pass.cc:344] Number of ops in the original program is: 69, after lowering it becomes: 89. (compression ratio: 89/69 = 1.28986)
I0228 19:41:17.582412 34354 build_cinn_pass.cc:68] Time of building group ops (size=0): 0 min 0 s 0 ms
I0228 19:41:17.582569 34354 add_cinn_pass.cc:326] FusionOp count before lowering : *****[ 0 ]*****
I0228 19:41:17.582580 34354 add_cinn_pass.cc:263] Enable AP Generic DRR Pass
E0228 19:41:17.582587 34354 add_cinn_pass.cc:230] before ApLowerFusionOpAbstractDrrPass:
{
}
E0228 19:41:17.582785 34354 add_cinn_pass.cc:233] after ApLowerFusionOpAbstractDrrPass:
{
}
I0228 19:41:17.582820 34354 add_cinn_pass.cc:340] Time of lowering and compiling program: ***** [ 0 ] ***** seconds.
I0228 19:41:17.582825 34354 add_cinn_pass.cc:344] Number of ops in the original program is: 0, after lowering it becomes: 0. (compression ratio: 0/0 = -nan)
F.
======================================================================
FAIL: test_entry (__main__.TestSubGraphLayer)
----------------------------------------------------------------------
Traceback (most recent call last):
  File "/work/PaddleTest/framework/e2e/PaddleLT_new/layerE2Ecase/matmul-related-subgraphs//test_sequence_01f387927f59470e4d98ffd80183e55c_0.py", line 456, in test_entry
    return self._test_entry()
  File "/work/PaddleTest/framework/e2e/PaddleLT_new/layerE2Ecase/matmul-related-subgraphs//test_sequence_01f387927f59470e4d98ffd80183e55c_0.py", line 283, in _test_entry
    self.assert_all_close(cinn_out, dy_out)
  File "/work/PaddleTest/framework/e2e/PaddleLT_new/layerE2Ecase/matmul-related-subgraphs//test_sequence_01f387927f59470e4d98ffd80183e55c_0.py", line 317, in assert_all_close
    np.testing.assert_allclose(x_numpy, y_numpy, atol=tol, rtol=tol)
  File "/work/Paddle/env3.10/lib/python3.10/site-packages/numpy/testing/_private/utils.py", line 1714, in assert_allclose
    assert_array_compare(compare, actual, desired, err_msg=str(err_msg),
  File "/work/Paddle/env3.10/lib/python3.10/site-packages/numpy/testing/_private/utils.py", line 920, in assert_array_compare
    raise AssertionError(msg)
AssertionError: 
Not equal to tolerance rtol=1e-06, atol=1e-06

Mismatched elements: 27640151 / 28311552 (97.6%)
Max absolute difference among violations: 0.00277519
Max relative difference among violations: 0.00021493
 ACTUAL: array([[[11.806711, 12.459918, 11.679236, ..., 13.004428, 12.568486,
         12.871656],
        [12.35522 , 13.388059, 12.616899, ..., 13.621553, 13.58537 ,...
 DESIRED: array([[[11.80671 , 12.460229, 11.678878, ..., 13.004757, 12.568437,
         12.871679],
        [12.354609, 13.388585, 12.616758, ..., 13.621527, 13.585227,...

----------------------------------------------------------------------
Ran 2 tests in 7.425s

FAILED (failures=1)
all prim enabled:  True
